skip-gram-classification-model.pt (torch, 885045 bytes, 6 tensors)

lstm.weight_ih_l0 f4 [512, 300]
00000000: 7805 96bd 230f b83b 0eed 513e 4f44 563e
00000010: 7e33 eabc def9 8cbc 2b4d 123e 2ff4 debd
00000020: 6cf9 7ebe c32c 343e 91a0 2cbe 5521 4ebe
00000030: dc26 b9bd 772e f73c 085e 78bd 4ec5 4fbe
00000040: a107 eebc 38ea bf3d 6119 bebd 7f9c 55be
00000050: f41d 2cbe ff83 79bd 6696 30be dfbf 2bbd
00000060: 69a7 523d 35d2 71be 8745 0eba dd43 89bd
00000070: 7770 a5bd 6ed1 953e fc10 2cbd 2e53 413e
00000080: 0b9a 10bc 2dd4 613e 26c9 0a3d aa89 a43d
00000090: 3c7a 87bd c82b 7f3d 59e9 6f3e ab94 b5bd
000000a0: f530 b53e 926e 893d 2de5 0cbe 0e17 42bd
000000b0: 9da9 c33d 2d2c 813e 7ee2 763e f576 2abd
000000c0: ff18 22be e1d8 1fbd e0e9 1dbe 04e2 df3d
000000d0: 91d6 493e a914 72be 3684 ca3c 5820 0d3d
000000e0: e100 c43d 1500 473e dc4b 09bb 2b21 c4bc
000000f0: 5af6 783d 9612 3b3c 0825 d6bc c4f0 14bd
00000100: 6722 c83c b686 adbd c4c4 21bd 1845 bebd
00000110: de89 cfbd 8a53 7cbe 6e40 663e d539 16be
00000120: 93cb a43d 0d41 1e3d 3f4f 493e 9e28 23bc
00000130: 9e6a 4b3e 6284 1dbd 1c8b 6dbe 1d77 4d3e
00000140: bc4e 243d 3e20 9f3e fba6 0abe 31a0 a5bd
00000150: db27 6fbc 9ff6 9c3e 7e3d a0be 47e9 2fbc
00000160: 0a08 b43d 038d 083d 1ff1 823d cb38 193e
00000170: 3828 663d 4623 653d d713 02be 84c1 4d3d
00000180: 0398 c7bc 92ae 633d c16d 6ebb a16a 173e
00000190: e279 c7bd be52 a33d b34f 00bd 0b15 eabd
000001a0: e223 093e 73b3 dcbd d79f b9bd b20c 2d3e
000001b0: 32bb 10be c2e8 513d 64a0 cbbc 0409 2cbe
000001c0: 07f1 4dbd ac3e 99bd 572c af3d 14ea dd3d
000001d0: e480 393d 4a29 ce3d 25c7 8f3d 87d0 ba3c
000001e0: 59e0 6e3e cf4d ec3d 2dde 3cbd 3642 3dbd
000001f0: 8528 0b3f b084 9fbd dadc 743e eadf b9bd
00000200: 6b9f 4bbe 3b48 593d 13e2 7c3d 9a07 093e
00000210: 2f25 4dbe 16de 51be 7739 803e 5f6b 3bbc
00000220: b387 ba3d 1f88 ea3c 3c1f f8bd 5825 31bc
00000230: 259b 963e dd97 bc3e cb35 903d 779c 32bd
00000240: 3ef6 a0be eab7 bebd 6f60 0c3e 2e95 1dbe
00000250: 4afc 0a3c 5d5e 423c 9aba 543d fcfc 333e
00000260: 5d61 9a3e fa2c c33d ed30 433e a4f7 57bd
00000270: 6119 063d f9ed 9f3e 452d b63c f270 553e
00000280: 78f5 7e3d 0a85 19be e30f 0f3e 3e00 56be
00000290: 3a29 473e d6ea 793a 1aed 5abd 27ca 233e
000002a0: 3ff7 d93c 0ef1 313e 44ab b3bb ca43 653d
000002b0: 3fb8 c5bd 6f26 ddbd a021 70bd 4396 3abd
000002c0: 2072 a5b9 efa3 0dbd 0133 c53d 6bf4 373e
000002d0: b875 19bd 4b1c 3b3d 002f 57be 4914 6a3e
000002e0: 1b34 99bc 6793 ee3c 7ffb a23e 7d2e 02be
000002f0: 1022 47be a370 803e b00b 5f3d e3e4 ccbd
00000300: 5edb 15bd 27a9 29bd 9f0a abbd 14d1 c0bd
00000310: 353c 3f3d 43b0 f8bd 8ae4 07bc 9a2b 8f3e
00000320: 780c acbd 2cb1 b5bd ce38 d83d 095a 08be
00000330: bf74 37be 23cb 8a3b 6d30 d0bd 20b0 32bd
00000340: 4d90 973d 422b 69be 5bde 833a f2b9 6f3d
00000350: c916 34be 410c e1bd d278 c33d e2c2 19bd
00000360: 639f 893c bdce 733e 5dfd 4a3e 8a78 0bbe
00000370: cf28 b03d 030a 993c 6568 48be c020 083e
00000380: 3f58 a33a 1b4f e3bc 0a53 243d cd86 7a3d
00000390: af79 303e 0708 f63b a896 bbbd b597 0d3e
000003a0: 3339 20be 065d 6c3e e491 f6bd fd89 953e
000003b0: 158c 93be 2eb6 88be 3870 2d3d 8318 b4bd
000003c0: 852b b4be 2537 73bc 412e ccbb d127 63bd
000003d0: e752 7b3e a6b9 c0be 9d3d 99bd fbbe 5e3e
000003e0: af7e 9fbc c222 5d3d 7130 a4bd bbe2 013d
000003f0: 1b4f 853d e6f0 abbd bc6d d839 02f4 8ebd
-0.07325262 0.005617039 0.20500585 0.20924495 -0.028589007 -0.01720899 0.1428725 -0.10886418
-0.24899834 0.175952 -0.16858126 -0.20129903 -0.09040615 0.030173523 -0.06063655 -0.2029011
-0.029056372 0.093708456 -0.092821844 -0.2086048 -0.16808301 -0.060916897 -0.17244872 -0.04193103
0.051429186 -0.23615344 -0.00054272305 -0.06702397 -0.080780916 0.29261345 -0.042008385 0.18879387
-0.008825789 0.22053595 0.033883236 0.0803407 -0.06615111 0.062297612 0.23428859 -0.08866247
0.35388914 0.06710543 -0.13759299 -0.047385268 0.095538355 0.25229016 0.24109837 -0.041617353
-0.15829848 -0.03902519 -0.15421247 0.10931781 0.19710757 -0.23640694 0.024721246 0.034454674
0.0957048 0.19433625 -0.0020949757 -0.023941597 0.060781814 0.011418005 -0.026140705 -0.036362424
0.024430467 -0.0847296 -0.03949429 -0.09290522 -0.10133718 -0.24641243 0.22485515 -0.14670499
0.08046641 0.038636256 0.19659136 -0.009958414 0.1986489 -0.03845633 -0.23197597 0.2006497
0.04011415 0.31079286 -0.1354026 -0.08087195 -0.014596905 0.30656907 -0.31296915 -0.01073677
0.08790596 0.033337604 0.063936464 0.14963071 0.0561907 0.055941842 -0.12702881 0.05023338
-0.024364477 0.055586405 -0.0036381336 0.1478677 -0.09740044 0.07974766 -0.031326007 -0.11429795
0.13392594 -0.10776415 -0.0906369 0.16899374 -0.1413391 0.051247366 -0.024856754 -0.16800314
-0.05027869 -0.07482657 0.08553379 0.108356625 0.045288935 0.10066469 0.07020406 0.022804512
0.2332777 0.11538278 -0.04611032 -0.04620572 0.543587 -0.0778898 0.23912373 -0.09075911
-0.19885032 0.0530474 0.06173904 0.13381806 -0.20033716 -0.20494875 0.25043842 -0.0114391735
0.09107914 0.02862936 -0.121153325 -0.010812126 0.2941524 0.36834612 0.0704151 -0.043606248
-0.31437868 -0.093124226 0.13708661 -0.15388939 0.008483002 0.011863318 0.05193577 0.17576975
0.30152407 0.09530063 0.19061632 -0.052726403 0.032739047 0.31236246 0.022238383 0.20843866
0.062245816 -0.14992157 0.13970904 -0.2089853 0.1944932 0.00095335895 -0.053448774 0.15995084
0.026607154 0.17377111 -0.005483063 0.05597285 -0.09654283 -0.10798346 -0.058625817 -0.045553457
-0.00031556282 -0.034580167 0.09628869 0.17964332 -0.03746578 0.04568128 -0.21014023 0.228593
-0.018701604 0.029123021 0.318325 -0.12713046 -0.19446588 0.25085935 0.054454505 -0.10004594
-0.036586158 -0.041421082 -0.08351635 -0.094148785 0.046688277 -0.12142994 -0.008294234 0.27962953
-0.08400816 -0.088716835 0.1055771 -0.13315596 -0.17915629 0.0042356416 -0.101654865 -0.043624997
0.0740057 -0.22770408 0.0010060774 0.05852694 -0.17586817 -0.10988665 0.09544529 -0.03753937
0.016799634 0.23809333 0.19823213 -0.13620201 0.086015336 0.018681532 -0.19571073 0.13293743
0.0012462212 -0.027747681 0.040118255 0.061163712 0.17233919 0.007508281 -0.09159595 0.13827403
-0.1564682 0.2308236 -0.12039545 0.2920684 -0.28817812 -0.26701492 0.04234335 -0.08793738
-0.35189453 -0.01484469 -0.0062311 -0.055457894 0.24543343 -0.3764164 -0.07482455 0.21752541
-0.019469587 0.053988226 -0.08017052 0.031710368 0.06509229 -0.08395557 0.0004128049 -0.069801345

lstm.weight_hh_l0 f4 [512, 128]
00000000: dcc7 89bd d3a6 9cbd 1add 5fbe fa59 3b3e
00000010: b9df 573d 5a67 2fbe 420e c5bd df72 0a3d
00000020: 530d 733d 2807 003e 71cb b2bd c8ad 013e
00000030: 86cd 0dbe ae82 34be 9426 ff3c 9cda b3be
00000040: e33b 0a3d 8c5f 18be 4db8 4ebe c31e d93b
00000050: f513 b93d 92f6 27be e3ff 393b aa2c 15be
00000060: 844b 47bd 8d9a d93d 2987 2dbe ebb3 153b
00000070: 4734 f03d 2024 083e d708 6d3b 302f 3b3d
00000080: b9af e73d 6e23 24bd 8cdb b2bc a392 19be
00000090: 8d92 c3bd 3e5e 72bd b319 82bd 6c4b 99be
000000a0: dc70 30bd d58b 863e c21e 933e 7f18 dbbd
000000b0: 4f26 1cbe b566 afbd 9f86 b43d 0393 75be
000000c0: fd41 3fbc b6be 85bc 3300 21be c4d5 563e
000000d0: d919 143c 0441 023e ce69 3f3d 56c8 8dbe
000000e0: 0777 28be 70c5 aebc 860e c53c 9107 633b
000000f0: 132e acbc 644b 59be 36e3 c23d 378d 4c3d
00000100: 7e5b 5bbd f4d4 af3d 3776 12be adec 973d
00000110: acd6 1e3e 054a 943d 1a0b 07be cd33 4fbd
00000120: 2653 56be cbcc 1d3e 2b4f 85bc b766 48be
00000130: dbec 5b3c d75d d0bd 796a 45bc 00c0 2d3d
00000140: 135c 0f3e 137c 56bd e800 273d b9a6 4bbb
00000150: 5dea fa3d d12f 68bd 2bdc 983c 37fe 95be
00000160: 37e3 f63c 441f b93d b773 4d3d ef58 89bd
00000170: 44af 053e 6f94 40be aba1 ed3d 5f4c 3d3c
00000180: 6fd6 61bd d73e 1d3e 3b72 e43c 83ff a73d
00000190: 36a9 683c 76b0 403d 5ede 203e b632 87be
000001a0: 2305 38bd f4db a73d f889 1bbb 2068 233d
000001b0: c3eb c83d c4f7 36be f31e 853e d6af 56bc
000001c0: 8220 503e de0c 0cbe 8244 5e3e adb6 8a3e
000001d0: 06e4 33be 1248 8bbc 37e7 1cbd 4610 95be
000001e0: 623c 183d 5f89 83bc b07e 7fbe 7bcd 4abe
000001f0: f09f a33d 2fc1 213d 48e3 a5bd 7a52 2ebe
00000200: 167b 47bd 2baf 6c3e 9c1f 70bd 1969 a53c
00000210: 511e 35be 7ab0 10be c8bb bfbd bf19 96be
00000220: 91f1 1e3d c03c f8bc 97e9 9fbd ac89 3dbe
00000230: 1d5d 743e 03b0 29bd 1b69 d83d beb0 acba
00000240: 623c 89be c00b 37be f4a2 87be 5771 513d
00000250: 3605 463d 203d d2bd b503 32be 17d8 423c
00000260: 0779 7e3e 0221 353e 7e78 033d ba31 283d
00000270: 76c0 343e 6b00 3abd 29b4 8d3e 3ea9 ae3d
00000280: b484 183d 44a3 1dbe f861 4cbd 045a 22bd
00000290: 7947 a2be 555c b3be c17e 933e 4657 90bd
000002a0: dd53 873d 359a d7bd b35d b2bc a6f2 903d
000002b0: 69d1 56bd 12b0 fcbb 7493 02be a268 b1bd
000002c0: 0708 a83b a5f5 2a3e 0618 b3be 17c8 acbd
000002d0: 53ad 37be 0e63 523e cf52 93bd 4dc4 00be
000002e0: 6a84 78be e2de 29bd 5e8c 503e ac12 4f3e
000002f0: 5d43 b4bd 3cc6 ea3d 5b01 da3d d13e e3bd
00000300: c12b 183d bc70 a33d b75c 6abe bbe9 afbd
00000310: 4d67 1ebd 4ad2 0a3e dd8d babd 29ef 82bd
00000320: 8b8f 4dbe 422d 2d3d 303a 24be 627d d0bd
00000330: 34f4 bdbd e878 ae3d 3f68 6c3e c308 49bd
00000340: 1b85 4c3d af34 1d3e faf4 2fbe 941c c73d
00000350: 9195 d5bd bea2 3cbe d3e1 0c3e 31e6 bebd
00000360: 63dd 32be 6062 a53d 4703 3dbe 5072 63be
00000370: 42af ed3d 022a cabd b8ea a4bd e7e8 913e
00000380: e3d2 15be c465 ef3b 5661 7d3c 1119 453d
00000390: 8bb2 92be 0eef 48bb 0e13 b63c 8c0b cabe
000003a0: 8fcf 14be 56f1 a23c 19cf febd f994 dcbe
000003b0: 14f8 5ebe cf53 8ebd 4921 d5bc 66bd 283d
000003c0: eabe e73d bf84 0dbe ceba 033d 1652 d5bd
000003d0: e32e b1be 0713 013f 1e66 09bd 1370 6c3d
000003e0: cf6c c03c dfd9 753b 7574 f9bb ebd1 b13d
000003f0: 34f5 34be 83a2 3d3e 348d 5bbe 7e71 bbbd
-0.06727573 -0.07649007 -0.21861687 0.18296042 0.052703593 -0.17129269 -0.0962186 0.033800956
0.05933888 0.1250273 -0.087302096 0.12663949 -0.13847932 -0.17627975 0.031146325 -0.35127723
0.03374852 -0.14880198 -0.20187493 0.0066259815 0.090370096 -0.16402653 0.002838128 -0.14567819
-0.048656 0.10625181 -0.16946091 0.0022842835 0.11728721 0.1329503 0.00361686 0.0456993
0.11312813 -0.04007285 -0.021833204 -0.14997344 -0.09549437 -0.059171908 -0.06352558 -0.29940355
-0.04307638 0.26278558 0.28734404 -0.10698032 -0.15248989 -0.08564512 0.088147394 -0.23981862
-0.011673448 -0.01632629 -0.15722732 0.20979983 0.009039366 0.12720114 0.046731763 -0.27691907
-0.16451655 -0.02133438 0.024054777 0.003464196 -0.021018064 -0.21220165 0.09515993 0.04993936
-0.05355405 0.085855395 -0.14302908 0.07418189 0.15511578 0.072406806 -0.13187829 -0.05058651
-0.20930156 0.15410154 -0.016273102 -0.19570433 0.01342317 -0.101741485 -0.012049311 0.042419434
0.13999967 -0.05236442 0.04077235 -0.0031074716 0.122517325 -0.056686226 0.018659672 -0.29295513
0.030137641 0.090391666 0.050159182 -0.06706416 0.1305514 -0.18806623 0.11603101 0.011553853
-0.05513614 0.15356003 0.0278865 0.08203032 0.014200499 0.047043286 0.15709826 -0.26405877
-0.044926774 0.081962496 -0.0023733359 0.039894223 0.09810593 -0.17867953 0.26000175 -0.013103446
0.20324901 -0.13676783 0.21705821 0.27092496 -0.17567453 -0.01700214 -0.03830644 -0.29113978
0.03716696 -0.016056715 -0.24950671 -0.19804947 0.0798949 0.039490875 -0.08099991 -0.1702365
-0.04870137 0.23113696 -0.058623895 0.020191716 -0.17687346 -0.1412982 -0.09361988 -0.29316518
0.038804594 -0.030302405 -0.078082256 -0.18509549 0.23863645 -0.041427623 0.10566922 -0.0013175232
-0.2680388 -0.17875576 -0.2649151 0.05113348 0.048344813 -0.10265565 -0.17384227 0.01189234
0.24850856 0.17688373 0.032097332 0.041063048 0.17651543 -0.045410555 0.27676514 0.08528374
0.03723593 -0.15394312 -0.049898118 -0.039636627 -0.31695154 -0.3503138 0.28807643 -0.07047896
0.066077925 -0.105274595 -0.021773195 0.070775315 -0.052445803 -0.007711419 -0.12751561 -0.08662535
0.00512791 0.16695268 -0.34979266 -0.084366016 -0.17937212 0.20545599 -0.07193529 -0.12574883
-0.24269262 -0.041472323 0.20366046 0.20221967 -0.08801911 0.114635915 0.1064479 -0.11095966
0.037151102 0.07980487 -0.2288693 -0.085895024 -0.038672734 0.13556781 -0.091090895 -0.063932724
-0.20074289 0.04227949 -0.16037822 -0.10180165 -0.09275094 0.08519155 0.23086642 -0.04908062
0.049931627 0.15352128 -0.17183295 0.09722248 -0.10428918 -0.18421456 0.1375802 -0.09321249
-0.17467265 0.08075404 -0.18458281 -0.22211576 0.116056934 -0.098712936 -0.080525815 0.28498003
-0.14631228 0.0073058326 0.015465101 0.04811961 -0.28651842 -0.0030660066 0.022225883 -0.39461935
-0.14532302 0.019890469 -0.124418445 -0.43082407 -0.21774322 -0.06949579 -0.026016848 0.04119625
0.11315711 -0.1382017 0.032160573 -0.10416047 -0.34606084 0.5041966 -0.033544652 0.05772407
0.023489384 0.0037513894 -0.0076127597 0.08682617 -0.17671663 0.18519025 -0.21440583 -0.09152506

lstm.bias_ih_l0 f4 [512]
00000000: a19b 43be 8ddd f4bd 8d6e 1dbe d598 66bd
00000010: b6f7 adbd fdc6 5a3c 06f3 42bd fc6e 55be
00000020: fcff 79be 0511 05be 27c9 b8bd 8f47 75be
00000030: 65a1 0e3e fc53 68bd 7299 96bd 1280 15bd
00000040: e1ef 26bc b65f ecbd e810 3bbd bba8 36be
00000050: 015c edbd c960 44be 2265 5ebe 9d1d 96bd
00000060: a18a 0ebe 7ad0 6e3c 9583 29be 0bf2 fabc
00000070: 9afd 6e3c 4ab7 92be c2f3 5ebe 925b fdbd
00000080: af10 003c 73fc aebd 0fb7 85be 9443 4abe
00000090: 53e7 24be 44c2 a4bd c389 d3bd f869 e2bd
000000a0: f67b 44be 6314 adbd e5a1 febd fc12 3dbe
000000b0: b3e9 17bd 1eef d1bd e6e2 c8bd 5b9d 963c
000000c0: ebcc 89be 9d86 e6bd 7a3a 88be c24c c23c
000000d0: b44b 35be bab5 1ebd f563 41be b46e 98bd
000000e0: 9882 15be 866b ffbd 6f38 c2bd 4721 2abe
000000f0: 19ec 8fbd f959 6bbe d23c 76be 0db3 47be
00000100: c55a 65be 7b79 81be 1cd1 23be 99f4 e4bd
00000110: dcb7 dcbd 7f33 643b 1853 c3bd 53c1 70bd
00000120: 4dd5 06be 89d9 81be b990 61be a745 49be
00000130: 1f6b 693d bb26 f9bd 2ec8 f73d 7d5c 08bc
00000140: bd7d aebd 7dc3 a43b 7785 9abd eaf4 b5bd
00000150: 882e d3bd f551 a8bd 534e 46be 152e 7dbe
00000160: be23 e03c bf88 53be adea 55be 0579 c4bd
00000170: 45f4 52be 8e4c 3fbe 12f8 a1bd 6a0e bdbd
00000180: 6f22 fbbd 489f 10be a513 92bd 13f8 37be
00000190: a6d1 54be 68fe 1bbe 81b5 63bd 8ae3 7abe
000001a0: fc89 503d 7c29 53be 4cc4 16be 0c1f 3abe
000001b0: 3260 16be 4379 7cbe c091 20be 6992 9cbc
000001c0: a866 82bd 5f0e 48be 43a4 00bd e431 04bd
000001d0: b64f 01be e545 cdbd ffdb 4a3b 1ee5 22bd
000001e0: 3738 72bd 6d05 66be cd2d 24bd 660e 37be
000001f0: 9764 28be 3df0 ccbd a56b 3dbe 5cf6 ebbd
00000200: 6f93 23bd 3494 6a3e 6fec 22bd 914f fdbc
00000210: 07d6 913b 7d65 1a3e ebc3 5a3d 570e 42be
00000220: 3438 2fbd e821 afbc 7cf1 593e 480d a13e
00000230: 260a ec3d 1bcf 973e 5eb7 a5bd 4f59 993b
00000240: a7c4 fb3c e323 2c3e aeef eebc 4be9 e13c
00000250: aae2 eebb 5009 f6bd 2ba1 533d ab8a ecbd
00000260: f250 e23d b5ec 0e3c 718b 3b3e d19d d43c
00000270: 2530 6439 a664 fa3d 40b4 683d 9a3f a4bd
00000280: 5eeb ef3d 79ee a7bc 7c12 d1bd 1518 febc
00000290: 1576 83be b5bb 183d fe34 6a3d 2ae8 45bc
000002a0: e7e0 9ebd d5c7 41bc fc6d 853d fdbf f5bd
000002b0: 4f79 da3d d67b b1bc 6468 6fbc d3b4 0cbd
000002c0: 22c7 823e 09df 343d d515 803d 2b1e 783d
000002d0: 2dcd 793d 4ad9 1fbd a8da 5e3c e1e6 003e
000002e0: 0c18 d13c ba90 703e 7931 933d 09af 103d
000002f0: 7aef 3abc 8b1c 39b6 7219 113e 66b6 25be
00000300: c36d 8f3d 7b8b 293e 61ef 09bd 0a30 a93c
00000310: 8c07 61bd 400a 6f3d 79d1 7abd f85d b43d
00000320: 2310 f83d a9d3 153e f7da 803b 8a32 c2bd
00000330: 00a7 ea3d e964 d0bd 32a4 6d3e a259 b83d
00000340: ccce 163d aefd 063e d1c7 173d 701a 053e
00000350: d7d5 933d d237 f0ba 2074 49bd aa14 1c3d
00000360: a065 41bd 5121 eebd 04c3 d2bd 3e7f d33d
00000370: 9050 75bd 66fd d1bd 1b2a c7bc deed b63d
00000380: d87f 21bc f533 13bc ab85 88bc 1b83 ebbc
00000390: f1ce 3e3e f23e d03c 46cd 79bd ea36 31bd
000003a0: a025 593e f50f 17bd 5957 ba3e 6a3d 833d
000003b0: aa0e f7bc f0f7 953d b293 7ebe 9b93 47bd
000003c0: f0bc 403c 6e61 41bd 5456 ee3d 148d df3d
000003d0: 6be0 f3bb cc16 65bc a45a 2f3e 2fc7 bbbd
000003e0: 8f0a 13bd 182f ab3d 8cf8 2d3d 41d2 51bc
000003f0: b015 82bd f100 33be f6fd 8bbd c675 fd3d
-0.19102336 -0.1195632 -0.15374203 -0.056298096 -0.08494513 0.013353107 -0.047595046 -0.20843118
-0.24414057 -0.12994774 -0.09022742 -0.23953079 0.13928755 -0.05672072 -0.07353486 -0.03649909
-0.0101890275 -0.11541693 -0.04567042 -0.17837803 -0.11589814 -0.19177546 -0.21718267 -0.07329867
-0.1392007 0.014576072 -0.16554101 -0.030632993 0.0145868305 -0.28655463 -0.21772674 -0.12370981
0.007816478 -0.085442446 -0.26116225 -0.19752342 -0.16103868 -0.08044866 -0.1032901 -0.11055368
-0.19187912 -0.08451154 -0.12433223 -0.18464273 -0.037088107 -0.10250686 -0.098089024 0.01838558
-0.26914153 -0.11256144 -0.26607114 0.023718242 -0.1770466 -0.038747527 -0.18885787 -0.0744299
-0.14600599 -0.1247168 -0.0948342 -0.16614257 -0.07027454 -0.2298354 -0.24046639 -0.19501896
-0.22397907 -0.25287995 -0.15997738 -0.11179466 -0.10777256 0.0034820733 -0.09537333 -0.05877812
-0.13167305 -0.2536128 -0.22027864 -0.19655477 0.056986924 -0.121655904 0.12098728 -0.008322832
-0.085200764 0.005028187 -0.07544988 -0.08884604 -0.103116095 -0.08218757 -0.19365816 -0.2472461
0.027360793 -0.20657633 -0.20890303 -0.09593395 -0.20600994 -0.18681547 -0.07908644 -0.09231265
-0.12262427 -0.14123261 -0.07132653 -0.17965727 -0.207831 -0.15233767 -0.055593017 -0.24500862
0.050912842 -0.20621294 -0.14723319 -0.18175906 -0.14685133 -0.24655633 -0.15680599 -0.019112783
-0.063672364 -0.19536732 -0.031406652 -0.032274142 -0.12628064 -0.10023097 0.0030953882 -0.039769284
-0.059135642 -0.22463007 -0.04008274 -0.17876586 -0.16444622 -0.10006759 -0.18498094 -0.11521599
-0.039935526 0.22908098 -0.039776262 -0.03092173 0.004450563 0.15077777 0.0534095 -0.18950783
-0.04277821 -0.021378472 0.21283525 0.31455445 0.11525373 0.29650196 -0.08091615 0.004679836
0.03073342 0.16810565 -0.029167023 0.027577063 -0.007290204 -0.12013495 0.051667374 -0.11549886
0.11050595 0.008723428 0.18314911 0.025954159 0.0002176171 0.122262284 0.056812525 -0.080199435
0.117148146 -0.020499455 -0.10208604 -0.031017343 -0.25676027 0.037288386 0.057179444 -0.012079278
-0.077577405 -0.011827429 0.065151185 -0.119995095 0.10667669 -0.021665495 -0.014612291 -0.034352135
0.2554255 0.044158015 0.06254164 0.060575645 0.060986686 -0.039025582 0.013601936 0.12588073
0.025524162 0.23492709 0.071871705 0.035323177 -0.011409635 -2.7583762e-06 0.14169863 -0.1618286
0.07003357 0.16557114 -0.033675555 0.02065279 -0.054938838 0.058359385 -0.061234925 0.088069856
0.12112453 0.14631523 0.0039323526 -0.09482296 0.11457634 -0.10175497 0.23207167 0.09001471
0.03681831 0.13182709 0.037055794 0.12998366 0.07218521 -0.0018327183 -0.04918301 0.038105644
-0.047216058 -0.11627448 -0.102911025 0.10327004 -0.059891284 -0.1025341 -0.02431207 0.08932088
-0.0098571405 -0.0089845555 -0.0166653 -0.02874904 0.1863363 0.02542064 -0.06098678 -0.04326526
0.21205759 -0.036880452 0.36394766 0.06408198 -0.03015836 0.07322681 -0.24861029 -0.048724752
0.011763796 -0.047212057 0.116375595 0.109155804 -0.007442524 -0.013982486 0.1712442 -0.09168851
-0.03589874 0.08358592 0.04247336 -0.012806476 -0.06351793 -0.17480828 -0.068355486 0.12375979

lstm.bias_hh_l0 f4 [512]
00000000: 5a34 1cbe 7053 dcbd 2b9c 63be 12d9 f7bd
00000010: 0d64 fd3b bdb4 143c 8cc7 babd 06fb 0abe
00000020: ee8a 69be b609 1ebe 3488 c3bc 2f73 ebbd
00000030: 81e7 0abd d2c2 69bd 8048 bbbd 5ac9 24be
00000040: 461f b7bd 912e ffbd e7fa 90bd 2789 d0bd
00000050: 8459 2dbe 4031 14be d828 28be 5984 50bc
00000060: 218e 07be 6d10 06bd 0beb dabd 5542 efbc
00000070: e2f6 2dbd 5a3d 96be d575 03be 4382 17be
00000080: ef89 f5bc 6b37 3abe 7082 4fbe fcca e6bd
00000090: b247 23be 2157 1cbe ef5f d6bd ba2c 43be
000000a0: a586 27bd 8d6f 18be 3bec d7bd f9bf 5cbd
000000b0: b977 9abd fea1 a8bd 5481 bdbd 6c0b 06bd
000000c0: e49b 37be 058e 39be 857a 37be 8726 b8bc
000000d0: c71b f7bd 011c cbbd 2e05 31be c2fa 08be
000000e0: 0b1a 1bbe f583 1cbe 9b21 52be 4e08 91be
000000f0: 86fb f2bd 0606 d2bd 5f71 94be c38c c6bd
00000100: 4dba 1cbe f2c6 7bbe 99e4 43be 0a52 01be
00000110: 4616 04be 947a 12be e6c9 4fbe 4ee7 b8bd
00000120: 2fb2 4fbe 3834 79be 5f29 24be 0426 3dbe
00000130: 3ad0 ffbc 5164 fabd d4ed ea3d ecf3 07bd
00000140: 389d fa3c 002d d4bd 1b00 9dbd c39e 4cbe
00000150: a2d7 ecbd 0bcd 053c 0e4f 8abd d917 58be
00000160: 4f05 ecbd 96ad 90be 7ebb 98bd b98d 273d
00000170: 54b2 08be 7f1e 6fbe 38ee b8bd a2e4 22be
00000180: 19fd 1ebe 38c4 62be 4781 52bd d8a7 9cbd
00000190: dc7a 4abe b3ec 7bbe 741d 0fbe dbac 38be
000001a0: 8977 13bd 42ce d9bd b97e 23be fe98 4cbe
000001b0: 6bb6 51be 8216 86be 0d6c 5ebe 70c0 13be
000001c0: ff39 28be 19dd 25be 10bb 36bd cb9d f5bd
000001d0: 6898 11be 10e2 45bd 8562 033c 8e6f b2bd
000001e0: f333 d13c ade0 34be 3a0b 1dbe bf98 37be
000001f0: 5279 62be 9ade 1dbe c910 29be d19e aabd
00000200: 6823 04bd b018 9e3e 5a18 b2bd f633 3e3d
00000210: c2fb 1b3b f5bb 7e3e 7844 803d f748 abbd
00000220: efe8 1cbd 2547 ecbd 48e2 263e 53fa 2f3e
00000230: d470 013c 5366 a23e cbc4 29bd 3274 e5bc
00000240: 37ff 213d 2032 2a3e 4a4b 0db9 81f4 86bc
00000250: 1b91 a1bc 9329 a9bd 0d16 31bb cd4f 193c
00000260: 9bc2 8d3d ef23 033d 880b 003e d5ca 013d
00000270: 93e4 70bb e6c9 8b3e f03a d33d 76fa 99bd
00000280: 57f7 5f3e a773 e03d 873e 91bc b1b8 f9bd
00000290: e55d 4abe 9e1b a23d bd38 b13c 3331 bebc
000002a0: 7a2c d8ba ff08 8fbd eac5 2ebd 4dbd 68bd
000002b0: 070a 673e a490 a3bd 62d3 9fbd fcf2 4bbc
000002c0: d904 3c3e e84e b63d 1272 36bd f57a 483d
000002d0: 07a4 40bd d375 89bd 0f4c 03bd 3d23 2f3e
000002e0: 7937 f6bc 3550 bb3d 5e89 cb3c cfe9 d2bc
000002f0: b786 80bd 74a3 e1bd dde6 3b3e 0b62 fdbd
00000300: 58ce 3bbd eaae f03b 142f eebb db38 3fbd
00000310: bd78 1ebd 1b6c 7e3d 72d4 1abe 567a 8d3d
00000320: 7dfa e73d 35a2 743e 7847 47bd bb80 20bd
00000330: fff8 bf3d 217f 98bc 056c 883e 79d0 db3d
00000340: f09f 083d e0b4 353e 34bb 0e3d 93d5 063e
00000350: 0130 d03c 5587 1a3d 3d5b e4bc d5d3 9c3b
00000360: e742 6e3d 9867 a8bd a563 e9bd 9216 a43c
00000370: ef4c 1b3d 796a fabd 50d2 89bd aebd 8e3c
00000380: 5620 a43d 524e 06bd 1cd7 3bbd ecc7 1d3d
00000390: 34fa 293e 9fa2 1c3e 6672 dcbd ce7b df3b
000003a0: 278f 823e baf2 3e3d 11e2 bd3e 4942 8bbd
000003b0: 2b08 4bbd 6976 5cbd 0fef 5abe 19ba 8abd
000003c0: 951e 89bd 7241 9dbd ff10 6ebb a851 46bd
000003d0: b37c 86bc c0a4 7abd c2ab 2a3e 257b 65bb
000003e0: fe48 3d3c c1ff d03d a00c 2f3e 1c28 a1bd
000003f0: d23f bcbd 1912 3fbe 3d1b dfbd 25f2 273e
-0.15254346 -0.10758102 -0.22227542 -0.1210195 0.0077328742 0.0090762945 -0.09120092 -0.1357232
-0.22806904 -0.15433392 -0.023868658 -0.11496579 -0.033912186 -0.05707056 -0.09144688 -0.16092435
-0.08941512 -0.12460054 -0.07079106 -0.1018241 -0.16928679 -0.14471912 -0.1642183 -0.012726867
-0.13237812 -0.03273051 -0.10689362 -0.029206434 -0.042471774 -0.29343683 -0.12837918 -0.14795785
-0.029972998 -0.18185203 -0.20264602 -0.11269185 -0.15945318 -0.15267612 -0.10467517 -0.1906003
-0.04089989 -0.14886303 -0.10543104 -0.053894017 -0.075423665 -0.082340226 -0.09253183 -0.032725736
-0.17930561 -0.18120582 -0.17917831 -0.022479309 -0.12065845 -0.09917451 -0.17287132 -0.13376907
-0.15146653 -0.15284713 -0.20520632 -0.28326648 -0.118643805 -0.10255055 -0.28992745 -0.09694817
-0.15305443 -0.2458761 -0.19130172 -0.12628952 -0.12899122 -0.14304572 -0.20291862 -0.09028493
-0.20282815 -0.24336326 -0.16031407 -0.18471533 -0.03122722 -0.12226165 0.11471143 -0.033191606
0.030592546 -0.103601456 -0.07666036 -0.19982438 -0.11564566 0.008166562 -0.0675336 -0.21102847
-0.1152445 -0.28257436 -0.07457636 0.04090664 -0.13349277 -0.23351477 -0.090298116 -0.15907529
-0.15526237 -0.22145164 -0.05139282 -0.07649201 -0.1977343 -0.24602012 -0.13976079 -0.18034689
-0.03600267 -0.10635044 -0.1596631 -0.19980237 -0.20479743 -0.26189047 -0.21720906 -0.14428878
-0.16428374 -0.16197623 -0.04461199 -0.11992987 -0.14218295 -0.048311293 0.008019094 -0.087126836
0.025537467 -0.17663832 -0.15336314 -0.17929362 -0.22116593 -0.15416947 -0.1651031 -0.08331073
-0.03226033 0.3087821 -0.08696051 0.046436273 0.0023801182 0.24876387 0.062630594 -0.08363526
-0.03830808 -0.11537007 0.16297257 0.17185335 0.0079004355 0.31718692 -0.041447442 -0.028009508
0.039550032 0.16620684 -0.00013474855 -0.01647401 -0.019722512 -0.08259883 -0.00270212 0.009357405
0.06921884 0.03201669 0.12504399 0.031687576 -0.0036757335 0.27302474 0.10313976 -0.07518475
0.21871696 0.10959559 -0.01773001 -0.1219343 -0.1976238 0.07915424 0.0216335 -0.02321682
-0.0016492747 -0.06984138 -0.042669214 -0.056821156 0.22562419 -0.079865724 -0.0780399 -0.012448069
0.18361224 0.08901769 -0.04454238 0.048945386 -0.04703143 -0.06711926 -0.032054957 0.17103286
-0.030055748 0.09146158 0.024845775 -0.025746254 -0.06275695 -0.11017504 0.18349786 -0.12372216
-0.04585108 0.00734507 -0.0072687957 -0.04668508 -0.038689364 0.062114816 -0.15120104 0.06908099
0.11327074 0.23890002 -0.048652142 -0.039185267 0.09373664 -0.018615307 0.26644912 0.107331224
0.033355653 0.1774478 0.0348465 0.1316741 0.025413515 0.03772672 -0.027875537 0.0047859945
0.05816927 -0.08222884 -0.11395959 0.020030294 0.037915166 -0.12227339 -0.06729567 0.01742443
0.0801398 -0.032789536 -0.04585944 0.03852074 0.16599351 0.1529641 -0.10764007 0.0068201786
0.25499842 0.0466182 0.37086537 -0.06799752 -0.049568336 -0.053823862 -0.21380256 -0.067737766
-0.06695286 -0.07678498 -0.0036326048 -0.048417717 -0.016416883 -0.061192274 0.16667083 -0.0035016027
0.011553047 0.10205031 0.1709466 -0.078689784 -0.0919186 -0.18659247 -0.10893867 0.16400965

fc.weight f4 [4, 128]
00000000: 4cff bebd 9e9e 723e 42c2 be3e 85b4 573e
00000010: 8042 703e fe96 703d a5f9 88be ce26 303e
00000020: 69a4 d43c 03a2 ec3d 5a0b a63d d4d9 c9be
00000030: 03bb 16bd ae6e c0bb 3d20 efbd 8a10 a1bd
00000040: 50d1 753d b98e 283e 28d8 7e3e af5d a3bc
00000050: dc23 71be 97c4 36be 6d53 48bd 0bb6 0ebe
00000060: 8e20 92bd c95f 8ebe 083a 66be 2f98 d9bd
00000070: 37f6 693e f07e 81be 105b b2bd 21fb 8abc
00000080: f44b b43d bf00 a53d 02f4 94bd d266 e5bd
00000090: 26d3 2c3e 9d41 9dbd e706 6cbe 65f2 debd
000000a0: 3e79 29bd 5f15 d6bc dc45 19bc af2d c93d
000000b0: 9d15 04bf 5b31 4b3e 49db a43d 564c d93d
000000c0: 180f edbd 5e37 65bd 3d47 433d 10e8 6dbd
000000d0: b0de c93c 1e61 85be 28a2 98bd bc66 af3c
000000e0: 084a e9bd b147 97bd c1e0 ad3d 8ca2 f9bc
000000f0: 7c9b 6c3c a66b 9c3c fe05 bf3d c5fb acbd
00000100: 423c 003e 73ac ac3d 7dc0 a5bd 608e a53d
00000110: 6760 853d 5acd 0b3e c65a 9ebd 34b0 3f3e
00000120: 0464 853d e9f4 a7be f3fd 173e e1fd 2d3d
00000130: 16c1 08bc 2044 e6bc 420e f43c e0a4 91ba
00000140: 8d32 713d b1ed 893d 1f1e cc3d d324 0fbe
00000150: 22b7 143e 44e5 bf3d e1f9 d7be c7ba 493c
00000160: efe6 1a3d fa7e debc aacf 903c adc9 1a3d
00000170: 1176 68bc de4d fdbd 4828 5bbe 9599 e8bd
00000180: e1d7 ca3d 8c25 0b3d ceec 443e ac34 2dbc
00000190: b35e 99be 12e5 a93e eb88 0d3e c0f2 973d
000001a0: d077 8cbd 023c 0c3c 6cc4 113d c2f9 cc3d
000001b0: c101 a9bd 6ce3 e8bc d31d 4d3d e10a debc
000001c0: e95f 6abc 545f 233d 29ce 503d 8256 37bd
000001d0: 2974 9b3d 3c5c 973d 1e0a 3abd 87f1 2abd
000001e0: a95b 8ebd f8cf 923e 856c a43d e635 9abe
000001f0: f8bb 1cbd b2d1 c9bc 330f bcbd 86f4 92bd
00000200: 19f8 38bb cff9 d43e 4abe 083e d692 083e
00000210: 88fd 9bbd 99a3 7a3c 6ca2 f83d 9d49 53bd
00000220: baed 0d3e 8a5d ff3d b225 4dbe 82b5 38be
00000230: f632 c33d 08a8 98be 23e1 9abd 4406 c5bd
00000240: a4b2 22be 134e a0be 1f3c 743d 491a d43d
00000250: 47c4 b0bd a584 883c 2eb0 db3d 598a 28be
00000260: 77c4 d33c 0cee b5bd a8cf a03e bb1e 0cbe
00000270: 7038 a33d 1d1b b53e f44f c8bd 647d 4cbc
00000280: 7a7f ae3d c650 03bd 55c8 5e3e a054 a8bd
00000290: 2c28 903d 63f0 cbbd 5cda 383e 940c 913c
000002a0: 4e98 253d 8896 2ebe 6f50 03bd 6d86 df3d
000002b0: bcff 8e3d d32b 9ebd a35d 953c 5d7c cfbd
000002c0: 99b8 8bbe 4a86 323e e39c 633d d8ea c9bd
000002d0: f5b0 613c f567 7a3d c1c6 053e 8164 99bd
000002e0: 4fe7 363e 23ce 54be 1b86 593d a0ff bf3c
000002f0: c7dd 953e ea2b 0fbd 94bd 2d3e 20be 2c3d
00000300: e5d5 7e3c 5396 4f3e fb19 053d b716 8fbe
00000310: 51c1 503d ac1c a43d 4b9b 9bbd 6b9b 0bbd
00000320: 84ea dbbd ba87 c73e adf2 31be 751e dd3c
00000330: 1d0f 80bd a2a3 66bd b126 4b3e bffd 3fbe
00000340: 14ed 4dbe 3682 d63d a1f4 ef3d 4549 813e
00000350: 788e 493e 9b84 c7bd cc44 863d b13c 81bc
00000360: a9f4 0abe ff4c 86bc 27f5 d73d dad1 e7bd
00000370: 40b1 19be fbc2 4539 7f5f 20be 8113 87bd
00000380: ee51 103e 0f5d b8bd 89b4 16be 2429 243e
00000390: 01fd acbd d2f4 16be a2f1 8a3e d8ca 353d
000003a0: 0149 97be 75d0 d63d 608d b5be fd72 13be
000003b0: 032e a63d 6fb1 c2bd baa1 083d 46d0 0ebe
000003c0: 19be fd3d 5173 2ebd 1866 de3d ac26 1dbe
000003d0: 77b1 b63d 15ef c2bc e402 24be c631 3d3e
000003e0: 1b47 383d 5c46 b03c 92d6 21be 180d 5f3d
000003f0: 1913 3abd 2de1 5abe c389 b5bd f3bf 4ebe
-0.09326038 0.2369332 0.37257582 0.21064956 0.23462868 0.058737747 -0.26752964 0.17202303
0.025957303 0.11554339 0.08107634 -0.39424002 -0.036799442 -0.005872569 -0.11676071 -0.07864483
0.06001407 0.16460694 0.24887145 -0.019942133 -0.23548836 -0.1784843 -0.048907686 -0.13936631
-0.071351156 -0.27807453 -0.22483075 -0.1062473 0.2284783 -0.25292158 -0.08708775 -0.01696545
0.088035494 0.08056783 -0.07273103 -0.11201252 0.16877422 -0.0767853 -0.23049508 -0.10886077
-0.04137539 -0.026133237 -0.009355035 0.098231666 -0.5159548 0.19843046 0.08049638 0.10610263
-0.115751445 -0.055961005 0.04767536 -0.05808264 0.024642318 -0.26050657 -0.07452804 0.021411292
-0.113910735 -0.07386721 0.08490134 -0.030473016 0.014441367 0.0190943 0.09327315 -0.08446459
0.12522987 0.084313296 -0.08093355 0.080837965 0.06512528 0.13652554 -0.077321574 0.1871956
0.06513217 -0.3280404 0.14842968 0.042478446 -0.0083468165 -0.028108656 0.029791955 -0.0011111759
0.0588861 0.06734789 0.09966683 -0.13978891 0.14522985 0.09369901 -0.4218283 0.012312598
0.03781789 -0.027160157 0.017677147 0.03778999 -0.0141883055 -0.123683676 -0.21402085 -0.113574184
0.09904457 0.033971354 0.19230959 -0.01057164 -0.29955062 0.3318258 0.13821761 0.07419348
-0.0685879 0.008559229 0.035587713 0.10008575 -0.08252288 -0.028428756 0.05007727 -0.027104797
-0.014305093 0.039885834 0.05097786 -0.044760235 0.07590515 0.07390639 -0.045419805 -0.041734245
-0.069510765 0.28674293 0.08028511 -0.30119246 -0.0382652 -0.024636123 -0.091825865 -0.071755454
-0.002822405 0.4159684 0.1335384 0.13337263 -0.076167166 0.015297794 0.121403545 -0.051583875
0.13860217 0.12469013 -0.20033911 -0.1803799 0.095312044 -0.29815698 -0.07562473 -0.09620336
-0.15888458 -0.31309566 0.05962765 0.10356576 -0.08631187 0.016664812 0.10726963 -0.16459025
0.025850518 -0.088832945 0.3140843 -0.13683598 0.07969749 0.35372248 -0.09780875 -0.012481067
0.08520408 -0.032059453 0.21756108 -0.08219266 0.07038912 -0.099579595 0.18052047 0.017706193
0.040428452 -0.1704961 -0.03205913 0.109143116 0.06982371 -0.077232026 0.018233126 -0.10131142
-0.27289274 0.1743404 0.05556954 -0.09859246 0.0137751 0.061134297 0.130641 -0.07489873
0.17861675 -0.2078176 0.05310641 0.023437321 0.29270765 -0.03495399 0.1696685 0.042173505
0.015553926 0.20272188 0.03249548 -0.27947018 0.05096561 0.08013281 -0.07597979 -0.034083765
-0.1073809 0.3897074 -0.1737773 0.026992062 -0.06252883 -0.056308396 0.19838978 -0.1874914
-0.2010997 0.104740545 0.11716581 0.25251213 0.19683254 -0.09742089 0.06556091 -0.01577601
-0.13569893 -0.016394136 0.10544806 -0.11319323 -0.15009022 0.0001886002 -0.15661429 -0.06595517
0.14093754 -0.090021245 -0.14717306 0.16031319 -0.08446694 -0.14741829 0.27137476 0.0443829
-0.29547885 0.10488979 -0.35459423 -0.14399333 0.08114245 -0.09506499 0.03335736 -0.13946638
0.12389774 -0.042590443 0.108593166 -0.15346783 0.089205675 -0.023795644 -0.16016728 0.18476018
0.044989686 0.021517925 -0.15804508 0.054455847 -0.04542837 -0.2137496 -0.088641666 -0.2019041

fc.bias f4 [4]
00000000: 2b13 8fbd a2d0 e63d 4455 0f3d 271b 4e3c
-0.06986078 0.11270262 0.034993425 0.012579716
