svd-classification-model.pt (torch, 885003 bytes, 6 tensors)

lstm.weight_ih_l0 f4 [512, 300]
000000 17 0d dd 3d fd 30 3a 3d 88 6c 5d 3d b7 3d 3a 3d
       0.10793512 0.045456875 0.05405858 0.045469012
000010 c3 72 18 be db cb ec 3d 2d a7 6f bd 17 e9 79 3d
       -0.14887528 0.1156232 -0.05850904 0.061013307
000020 58 d8 46 bb f6 02 2d 3d 39 81 1f be 4b a6 e1 3c
       -0.0030341353 0.042239152 -0.15576638 0.027545115
000030 ac 1d 52 3e ae 4e 21 bd 3e 0c 9d bd 22 6e 8a 3d
       0.20519131 -0.039381675 -0.07668351 0.067592874
000040 af c0 f5 bb c4 23 c2 3d bc 13 e1 3d b7 aa 2d 3e
       -0.0074997763 0.09479478 0.10990092 0.16959654
000050 f6 f7 96 bc 56 01 5a 3e c7 bd 1b 3d 55 3e 30 bd
       -0.018428784 0.21289572 0.038022783 -0.043028194
000060 a6 37 95 bd 66 c9 33 ba db 76 72 3d 26 db 41 bd
       -0.07286005 -0.0006858319 0.05919538 -0.047328137
000070 9b c0 1f 3c 2a 85 b2 3d 7e 71 4e 3c b6 86 80 3d
       0.009750511 0.08716805 0.012600301 0.06275694
000080 fc 04 87 3d 59 1a 8d bd 4a c3 93 3d 40 d1 0a 3e
       0.065927476 -0.06889791 0.07214983 0.13556385
000090 b4 1b 14 3e 7c e0 a3 bd e5 d5 d9 3d 86 6e 0d 3d
       0.14463693 -0.08001801 0.106365 0.03452923
0000a0 4a ab 86 b9 f5 74 ef bd 17 25 a4 3d 69 92 d2 bc
       -0.00025686092 -0.1169223 0.08014887 -0.02570458
0000b0 f9 ec 51 3d 6a cd 80 bd eb 27 a2 3d 54 cc 28 be
       0.051251385 -0.062891796 0.0791777 -0.16484195
0000c0 ed 93 ff bd 7f 7c b8 3d 6b 5d 06 3c 42 ad f6 bc
       -0.124793865 0.09008121 0.0082009835 -0.030111913
0000d0 0e 07 9e 3d 56 1f 97 3c 30 50 a4 bd d7 28 23 3c
       0.07716189 0.01844756 -0.08023107 0.009958467
0000e0 b5 64 ef bd 39 8d b0 3d 50 58 87 3d 47 cc a3 3c
       -0.1168913 0.08620686 0.06608641 0.019994868
0000f0 c6 06 70 bd e9 a4 8b 3c 0b ea bc bc 8a 73 9f 3d
       -0.05860021 0.017046409 -0.02306082 0.07785709
000100 b6 54 e6 39 c2 c9 05 bd 04 13 e9 bd 6e 14 0e be
       0.00043932133 -0.032663114 -0.1138058 -0.13874981
000110 ca 71 89 3c d6 a5 34 bd f9 6c a2 bd 44 8d 2e 3b
       0.016777892 -0.044103466 -0.07930941 0.0026634494
000120 35 5d 63 3d 1e 4e 03 3b 1c 44 07 3e b2 ec 44 3d
       0.05550881 0.0020035575 0.13209575 0.048077293
000130 50 52 98 bd 28 f3 97 bd 94 27 2f 3d 8d a7 31 bc
       -0.07437575 -0.07419425 0.042762354 -0.01084317
000140 c5 77 52 bd e7 1b 92 bd 52 0c 1c bd 82 0d 81 bd
       -0.051383752 -0.07134228 -0.038097687 -0.063014045
000150 1c 6f 18 bd b9 d5 08 bc c9 7d 37 3c cf e6 be 3c
       -0.037215337 -0.008351737 0.011199423 0.023303417
000160 2f ee 5b bd 46 79 6e 3d 70 c3 4d 3d 3a 97 47 bd
       -0.053693946 0.058221124 0.05023521 -0.048728205
000170 a2 41 33 3d c1 b3 80 bb 2a 14 c7 bb 63 ad 08 3e
       0.043763764 -0.0039276783 -0.006075402 0.13347392
000180 32 8a e6 bd 02 d8 90 3d 6b 1f d6 bc c8 1c 31 bd
       -0.112568274 0.0707245 -0.026138028 -0.04324034
000190 69 a7 57 3c cd ee f6 bd 70 92 37 3d 8e 91 36 be
       0.013162472 -0.120572664 0.044817388 -0.17828962
0001a0 01 fd 9a bd f2 3f 9e bc 94 92 83 3d e1 4b e9 bb
       -0.07567788 -0.0193176 0.06424442 -0.007119641
0001b0 f0 dc 05 3e 2a 29 05 be 67 c7 89 3b 2e 0a 0a 3d
       0.13072562 -0.13003984 0.004204679 0.033701114
0001c0 eb c7 0b be 9d 9f 1a 3d 2f 90 fe 3c 1e 75 d3 bb
       -0.13650481 0.037749875 0.031074611 -0.0064531704
0001d0 86 c3 22 3e 2b 41 41 3d 66 52 b5 bd ee c8 8c 3d
       0.15894899 0.04718129 -0.08853607 0.06874262
0001e0 98 0e 58 3e 05 a5 df bb 1e 3b 97 3d 3b 63 64 3d
       0.21099317 -0.006825092 0.073843226 0.055758696
0001f0 a8 6d 4f 3d d1 d9 90 bc 19 ad 09 3d 98 27 24 3d
       0.050641686 -0.017681988 0.033612344 0.040076822
000200 ee 27 87 bd 22 0c 60 bd 40 36 15 3c 2e d6 26 3c
       -0.06599413 -0.05469907 0.0091071725 0.0101829
000210 75 89 31 be 88 ed e4 3c 13 cb 64 bc 9b c0 e7 bc
       -0.17337592 0.027945295 -0.013964432 -0.028290084
000220 25 e0 9a bd e5 39 e2 3d ce 40 ed bc 8b aa 5b bc
       -0.075622834 0.11046199 -0.028961565 -0.01340736
000230 83 e9 87 3d a6 59 f1 bd a4 70 45 3d 33 88 87 bc
       0.06636336 -0.11784677 0.048203126 -0.016544437
000240 90 a1 3f be 05 18 a3 bb b8 b2 58 bd 40 0b d3 bd
       -0.18713975 -0.0049772286 -0.052904814 -0.1030488
000250 8b 81 58 bc 34 af b3 3c c7 55 c7 3d fd 96 01 be
       -0.013214479 0.02193413 0.097331576 -0.12655254
000260 40 fc 4e 3d 72 8f 50 3d 29 d3 bd 3d 60 47 a3 bb
       0.050533533 0.05091805 0.09268791 -0.004982874
000270 26 7a bf bc ea 61 64 3d 41 7e 24 3a d7 b0 12 be
       -0.023373675 0.05575744 0.0006274917 -0.14325272
000280 37 17 6b 3d 53 07 e8 bc 78 e1 82 bd ff 5e 4b 3d
       0.057395186 -0.028323805 -0.06390661 0.049651142
000290 b4 a0 7e bd 8f 5e bd bc dc 4a b4 3c 83 c9 92 bd
       -0.062164977 -0.023116378 0.022008352 -0.071673416
0002a0 94 d9 69 3d 4c 5a b5 3d f9 1a b1 3d 09 7c d4 3d
       0.057092264 0.088551134 0.08647723 0.1037522
0002b0 f0 6e c5 3c 40 1d 23 be 95 0d c1 3d ef f2 6a 3b
       0.02410075 -0.15929127 0.09426419 0.0035850366
0002c0 00 0a b4 bd 51 47 07 3e d7 64 fa bd e1 00 5c 3d
       -0.0879097 0.13210799 -0.12226265 0.053711776
0002d0 a9 f4 99 3d f4 d4 4d ba e9 9c b4 3d 74 90 51 3d
       0.07517368 -0.0007851862 0.08818991 0.05116315
0002e0 2e 38 82 bb b9 a7 04 bd 01 37 c9 3d 2b 93 7d bd
       -0.0039739823 -0.032386515 0.09824944 -0.06190793
0002f0 58 ef cb 3d bf 4b 56 bd ff 8a 8c 3d 8d dd b9 bd
       0.099577606 -0.05231833 0.06862449 -0.090754606
000300 e5 fb 7a 3c 62 e2 44 bd f8 1e a8 bd 1d 9f 4a bd
       0.015318845 -0.048067458 -0.08209032 -0.04946815
000310 6d 99 10 be c5 23 fa 3d 62 9f 4c bd e6 17 06 3e
       -0.14121027 0.12213854 -0.049956687 0.13095054
000320 9f 77 b4 bc c4 19 c8 bd 7e 2c c6 bc f7 04 08 be
       -0.022029696 -0.097705394 -0.024191137 -0.13283144
000330 32 74 90 bc c2 0b 98 3d 20 6d 04 3d 0e 27 da 3c
       -0.017633531 0.074241176 0.032330632 0.02662995
000340 5e c5 25 3c 20 44 b0 bd 27 a3 30 be 5c 77 86 bc
       0.010117857 -0.08606744 -0.17249738 -0.016414337
000350 bf 99 b6 b9 a1 47 0b 3d 23 6d 0a bd c7 b5 6d 3b
       -0.00034828295 0.034003858 -0.033795487 0.0036271678
000360 d5 8d d8 bd 14 94 11 3e 60 c2 88 bc ec 3a f6 3c
       -0.10573927 0.14216644 -0.016694248 0.030057393
000370 61 c5 01 3c f1 c3 6d bd c2 4e 0d 3e d1 48 4c 3d
       0.007920594 -0.058048192 0.13799575 0.04987413
000380 40 28 9e bd 55 7e 86 bd c2 86 bb 3c bf e8 02 be
       -0.07722521 -0.06567065 0.022891406 -0.12784098
000390 4b f5 ed 3c 25 b3 9a bc e9 b4 2f 3d 1e 4c e2 bd
       0.029047629 -0.01888425 0.04289714 -0.110496745
0003a0 39 9c dc 3c 98 cc 56 3e 78 04 9f bc 32 b1 04 bd
       0.026929962 0.20976484 -0.01941131 -0.03239555
0003b0 27 5d 9c bd ef fc aa 3c f8 28 2d 3e 2e c9 8b bc
       -0.07634955 0.020872561 0.1691016 -0.017063703
0003c0 fd c1 67 bd ba d9 9b 3d 87 22 f1 bc 6a 97 02 3e
       -0.056581486 0.076098874 -0.02943541 0.12753072
0003d0 c3 c3 ac 3d 28 3c 9a bd da cb ce 3c 0f e1 af 3d
       0.08435776 -0.07531005 0.025243688 0.085878484
0003e0 08 26 52 3e 49 44 31 3c a5 b9 80 3b ff b9 a3 3d
       0.2052232 0.010819503 0.0039283806 0.0799446
0003f0 f4 ee 19 3c 45 29 16 bc ba a8 85 bb 5c 80 dc 3b
       0.00939535 -0.009165113 -0.0040789517 0.006729169

lstm.weight_hh_l0 f4 [512, 128]
000000 a1 1c 3c 3c de a6 da 3d 5e 22 dc bc 6b b0 40 bd
       0.011481435 0.10676359 -0.026871856 -0.047043245
000010 4d dc 96 3d 19 d4 31 3e f1 3b e0 3b 10 70 16 3d
       0.07366238 0.17366065 0.006843083 0.036727965
000020 94 69 68 3c e1 b3 3a bd 4d c0 19 be c8 dd 68 3d
       0.014185328 -0.045581702 -0.15014763 0.056852132
000030 fd 6c d9 3d 58 fb 90 3c 8b 60 d5 b9 86 ea 5a be
       0.10616491 0.017697975 -0.00040698456 -0.21378526
000040 34 36 2b bb 14 93 06 3d d5 3f 9f bd b8 5e b7 3d
       -0.0026124837 0.03285511 -0.07775847 0.08953613
000050 d3 63 0c 3d 00 f6 06 3d 03 c4 91 bd 61 c2 67 bd
       0.034274887 0.032949448 -0.071174644 -0.05658186
000060 fd b6 09 3e db 78 34 bd 1e 33 0a be 2f de 05 bd
       0.1344871 -0.04406057 -0.13496062 -0.032682594
000070 24 64 1c bb 90 86 f8 bc 77 23 25 be 5e e6 9f bd
       -0.00238634 -0.030337602 -0.1612681 -0.07807611
000080 af 8d 7f bd 6a ae d6 3c e4 69 44 3c cb 2d 12 be
       -0.06239098 0.026206214 0.011988137 -0.14275281
000090 f6 94 c0 3d 27 84 0d bd 96 fc 04 bc 82 05 09 3b
       0.09403412 -0.03454986 -0.008116862 0.0020907824
0000a0 87 ea 9e 3d 37 0b 6a 3b 9d d8 a2 bd 2e a6 f2 bd
       0.07759576 0.003571225 -0.07951472 -0.118481025
0000b0 d8 6a 06 3e 13 86 f4 3c 47 0f 2a 3d 72 30 d4 3d
       0.13126695 0.029849088 0.041518476 0.10360803
0000c0 e2 38 b7 bd 18 d2 1e bd b3 50 b8 3c 61 6c 3e bc
       -0.089463964 -0.03877458 0.022499418 -0.011622519
0000d0 40 5d eb 3a bb 70 ec 3c 23 6c d5 bc d1 bb 4c bd
       0.0017956868 0.028862348 -0.02605254 -0.049983803
0000e0 76 85 af 3d 6f 2b f0 bd 18 b7 16 be c1 b3 a1 3d
       0.085703775 -0.11727034 -0.14718282 0.078956135
0000f0 25 c6 0c bd ed 47 b8 bc 74 fe 98 3d 77 64 42 be
       -0.034368653 -0.022495234 0.07470408 -0.18983637
000100 8e 4a db 3d 58 53 8b 3d 73 5c 6b 3d 03 f8 24 3d
       0.107075796 0.06803006 0.057461213 0.040275585
000110 82 63 b0 bd f1 6b ab bc d1 71 0a be 4f d9 59 bd
       -0.086127296 -0.020925494 -0.1351998 -0.053185757
000120 33 8b 18 bd 05 95 26 3d e7 df c1 3d 26 02 00 3d
       -0.037242126 0.04066946 0.09466534 0.03125205
000130 f3 a7 a3 bd 17 c5 98 3d 51 ba cb 3c 2d 3c e8 bd
       -0.07991018 0.07459467 0.024869116 -0.113396026
000140 84 fe b8 bc 77 10 25 be cd 87 a4 3d 4b a9 f8 bc
       -0.0225823 -0.16119562 0.080337144 -0.030354163
000150 1c 30 d2 3d a2 58 4c 3c 59 a0 94 bd 8b b9 bc bd
       0.102630824 0.012472304 -0.072571464 -0.09215077
000160 99 54 1a 3d 3b 62 05 3e c2 85 a0 bd 5e 1d 0f 3c
       0.037678335 0.13025753 -0.07838012 0.008735029
000170 41 fb 32 bd dc 8c f9 bd c8 ec 3c 3d e5 df de bd
       -0.043696646 -0.1218507 0.04612425 -0.10882548
000180 da 72 4a 3e 3a cf 7d 3d 37 fd 93 bd 6f 68 5a bd
       0.19770375 0.061965205 -0.07226031 -0.053322252
000190 f1 d7 37 3b ca ae 73 3e cb b7 5a bd a4 bd 2f 3e
       0.0028052295 0.23797145 -0.053397935 0.17162186
0001a0 df b1 ac bd 8e 76 fb 3c 77 a1 47 bd f5 3e 66 bd
       -0.08432364 0.03069618 -0.04873797 -0.056212384
0001b0 e7 a1 16 3d 74 7f fa 3d fb 75 2f 3e 17 c4 57 3d
       0.036775496 0.12231341 0.1713485 0.05267724
0001c0 1e 33 00 3e 52 68 ac bd be 71 9d bd 78 81 d0 3d
       0.125195 -0.08418335 -0.0768771 0.10180944
0001d0 fe 58 b1 3d 12 fe ab 3c aa de 43 bd 4c ec f1 bc
       0.08659552 0.020995174 -0.04781977 -0.02953162
0001e0 ef 78 0f 3d 7e 90 85 3d 36 b8 8a 3d 45 16 39 bd
       0.03502744 0.065217 0.06773417 -0.045187254
0001f0 98 01 ef bd f2 a5 50 3d 5e 9d 0c 3e 3f 62 b6 bb
       -0.11670226 0.050939508 0.13731906 -0.005565911
000200 12 c0 6c bd f6 15 80 3d 52 43 8f bc 06 11 2f be
       -0.05780036 0.06254189 -0.017488156 -0.17096338
000210 cc 60 c6 bd f4 09 34 3e 0e d3 72 3d b2 e9 e6 3c
       -0.09686431 0.17581922 0.05928331 0.028187606
000220 c8 56 f7 3d 9e c8 1e bc 36 28 6a bd 7d 53 76 3d
       0.12077099 -0.009691386 -0.057167254 0.060138214
000230 ce 86 96 bd 2b 99 a9 bd d2 fb 8a be d9 42 a0 bd
       -0.07349931 -0.082811676 -0.2714525 -0.0782525
000240 6d 03 7e 3d fd 08 88 bc c1 d0 74 3d 1a 7d 1a bd
       0.062014986 -0.016605848 0.059769396 -0.037716962
000250 3f 03 f7 3c 41 a7 92 3d f3 4f 00 bd d5 57 b8 3d
       0.030152915 0.071608074 -0.031326246 0.09001128
000260 c0 e5 f1 bb dc 68 63 3c 07 3f 92 bb db 9e 0b 3e
       -0.0073821247 0.013879981 -0.00446308 0.13634817
000270 c1 41 d8 3d b5 f7 36 3e 90 1c 78 3d 9e d2 ce bb
       0.105594166 0.1786793 0.060574114 -0.0063117286
000280 64 90 a4 bd a4 32 26 3d 6a 3e 26 bd fc d2 63 bd
       -0.08035353 0.04057564 -0.040586866 -0.055621132
000290 e3 cd 81 bd d6 dc c8 bc 43 23 9a 3d 1d 6b 71 3e
       -0.06338098 -0.024519365 0.07526257 0.23576017
0002a0 0f 52 ac bd ab ef 26 be 4a b9 36 3c 7d 37 04 3e
       -0.08414089 -0.16302364 0.011152575 0.12911792
0002b0 9e 59 a6 3d b5 7e e3 bc c8 32 7c 3d 4b 83 18 3b
       0.08122562 -0.02777038 0.061571866 0.0023271616
0002c0 09 42 fa bc 04 1e d8 3c b5 da 66 bc 24 6f c5 bd
       -0.030549066 0.0263815 -0.01409023 -0.09640339
0002d0 70 24 46 bc c4 c8 03 3e 01 e5 14 bc 70 a0 cd bd
       -0.012093648 0.12869555 -0.009087802 -0.10040367
0002e0 a8 a5 ee be f4 c7 b5 3d 86 db e9 3d 0c bf 9f bd
       -0.4661076 0.08876029 0.11418824 -0.07800111
0002f0 ff 82 3a bd 58 9a 9e 3d 8d b0 3a 3d 40 47 32 3e
       -0.045535084 0.077442825 0.04557853 0.17409992
000300 04 30 7a 3e 6b 0d 45 be 8e a9 41 be e9 10 b5 3d
       0.24432379 -0.192434 -0.18912336 0.08841116
000310 74 ec 53 bd 07 87 e7 3c fa 50 41 be 92 78 85 bd
       -0.05173917 0.028262628 -0.18878546 -0.065171376
000320 82 f0 20 3d 32 fa 01 be 82 f7 39 3e 6a 2f 14 3c
       0.039291866 -0.12693098 0.18160823 0.0090445075
000330 51 fe 85 bd 67 3e 47 bd 4f 0a 62 be 74 a7 37 3d
       -0.06542648 -0.048643496 -0.22074245 0.04483743
000340 15 0e b4 bd 5d 5d 48 bd 99 72 1e be fd 3c 4e 3e
       -0.087917484 -0.048917163 -0.15473403 0.20140453
000350 fc f5 eb 3c dc d2 8c 3d 68 90 3e 3d f7 35 46 3e
       0.028803818 0.06876156 0.046524435 0.19356523
000360 3f b5 a3 3d 02 bd f3 3c 95 f5 69 3e 21 23 f7 3c
       0.07993554 0.029753212 0.22847588 0.030168118
000370 ca 96 0a 3e 85 5d 80 bd 11 ec b0 bb 5e 16 48 bd
       0.13534084 -0.062678374 -0.005399235 -0.048849456
000380 de 68 30 be 1e 12 1b be d6 e9 57 bd 05 7a 82 3d
       -0.17227504 -0.1514363 -0.052713238 0.0637093
000390 50 9b 80 bd cf f4 48 3d f6 93 cb bb 11 3f c7 3c
       -0.062796235 0.049061593 -0.0062127067 0.024322065
0003a0 35 5c a4 bd 27 48 2b be 88 56 c0 3d 55 56 b5 bd
       -0.080253996 -0.16726743 0.093915045 -0.08854357
0003b0 5f 51 0e be 7c a1 ea 3c a8 df d7 3d ce 13 11 3e
       -0.13898228 0.028641455 0.10540706 0.14167711
0003c0 a2 f0 03 be 16 c6 e0 3d 35 06 b5 bc e7 58 9f bc
       -0.12884763 0.10975282 -0.022097686 -0.019451572
0003d0 f7 a2 00 3e 39 51 ae 3e 51 2d df 3b 0e bf 09 bd
       0.12562166 0.34046343 0.006810822 -0.03362947
0003e0 87 f2 ba 3c 6c f2 a8 bd 19 93 26 3d 45 6e d9 bc
       0.022820724 -0.08249363 0.040667627 -0.026541838
0003f0 03 d6 36 3e ba 61 8f 3c 84 51 52 bd 8f 61 bd bd
       0.17855076 0.017502654 -0.05134727 -0.092471235

lstm.bias_ih_l0 f4 [512]
000000 8e d0 a4 bd ec fd c6 bd db c2 21 be f5 e0 c9 bc
       -0.08047591 -0.097164005 -0.15796988 -0.0246434
000010 af cb bb bd 17 15 86 3d 8a 59 6f bc a9 c5 72 be
       -0.09169709 0.06546991 -0.01460875 -0.23708214
000020 ad be ad bd 10 de c4 bd 06 a5 e4 bd bc 25 50 be
       -0.08483634 -0.096126676 -0.11164288 -0.20326895
000030 10 6d fc bd 24 80 3b bd aa a0 20 3d 83 47 34 bd
       -0.123254895 -0.0457765 0.03921572 -0.04401351
000040 9d 23 fb bd 23 d0 0c 3c e4 22 2a 3d 33 8a 39 bc
       -0.12262652 0.008594546 0.04153718 -0.011324453
000050 ab 79 80 bd ff 07 54 3c f7 21 8e 3d 14 64 f4 3b
       -0.06273206 0.01294136 0.06940072 0.0074582193
000060 a4 0a 20 3e 05 e4 36 3d 11 92 95 3d dd fa 9f bd
       0.15629059 0.04465105 0.073032506 -0.0781152
000070 e2 d7 30 be f7 bc 83 3c fe 12 49 be d7 b1 10 bb
       -0.17269853 0.016081316 -0.19636151 -0.0022078657
000080 fb 05 b2 bd 3a 25 10 3d da 35 a6 bd e2 f5 13 be
       -0.08692547 0.035191752 -0.0811574 -0.14449266
000090 80 32 43 bd 69 80 0e be 61 56 20 bd 64 cc 52 bd
       -0.047655582 -0.13916172 -0.039144877 -0.051464453
0000a0 f7 98 06 be 7c 5a 9b bc cc 89 60 bd d3 d8 8f bd
       -0.13144289 -0.018964045 -0.054818913 -0.07023778
0000b0 ce 9b d0 3d 87 52 54 3d ba a9 1a 3d f5 39 ed bb
       0.101859674 0.051836517 0.03775952 -0.007239575
0000c0 6e 99 8b bd f5 4a 78 3d 4c cf b7 bd 64 fc 86 bd
       -0.06816374 0.06061836 -0.089750856 -0.065911084
0000d0 11 21 63 be f3 8f 03 3d c5 c7 58 3d a8 49 94 bc
       -0.22180583 0.032119703 0.05292489 -0.018101528
0000e0 23 14 99 be 1b 86 82 bc e9 e6 6e 3d c4 4a 95 3d
       -0.29898176 -0.015933087 0.05832568 0.07289651
0000f0 25 b1 a1 3c 59 a3 3f be 05 80 61 bd fb 17 83 3e
       0.01973779 -0.18714656 -0.05505373 0.25604233
000100 c6 c8 e7 bd d1 fa 41 be 5c 33 94 bd b9 82 3b 3d
       -0.11317591 -0.18943335 -0.072363585 0.045778964
000110 63 90 c2 bc 37 e1 a5 bd 25 be 22 bc b6 9f 12 bd
       -0.02375049 -0.08099597 -0.009933029 -0.035796843
000120 cc 3a 69 bd c3 57 10 be 12 b7 a9 bd 09 2b 87 bd
       -0.05694084 -0.14095978 -0.08286871 -0.06600005
000130 36 da c3 3c c8 72 8a bb d8 e8 8f 39 80 a3 8d bd
       0.023907762 -0.004225109 0.00027448568 -0.06915951
000140 5e d9 d5 bc 45 ba ae bc 85 42 67 ba 57 dd 1b bd
       -0.026104625 -0.021329055 -0.0008821863 -0.038052883
000150 76 d9 d8 bd 99 aa 0f be 1e be 25 be 92 d8 d5 bd
       -0.105883524 -0.14029922 -0.16185805 -0.10441698
000160 28 ac 20 be b7 4b 9c bd 45 e8 11 be ce 3f 3f 3e
       -0.15690672 -0.07631629 -0.1424876 0.18676683
000170 8e f9 24 be 28 cf c4 3c b0 de 13 be 07 fd 7b bd
       -0.16110823 0.024024561 -0.14440417 -0.061520603
000180 e2 47 5a bd e5 02 19 3d 15 72 a2 bd c0 6e 38 be
       -0.05329121 0.037356276 -0.07931916 -0.18010998
000190 88 0c a2 bd f5 a3 1d 3d bd 48 83 3d 5a d7 6a 3d
       -0.079125464 0.03848644 0.06410358 0.05733428
0001a0 d4 51 a3 3b 85 fd 96 bc b0 87 8c 3c fa 45 8f bd
       0.00498412 -0.018431434 0.017154545 -0.06995769
0001b0 7c d5 ae 3d f7 f7 8d bd a8 6d c4 bd c7 64 07 bd
       0.08536813 -0.06932061 -0.09591228 -0.033055093
0001c0 4e d4 ed bc 26 c2 0f 3e 88 20 d3 bd 5d 81 80 bd
       -0.029031899 0.14038906 -0.10308939 -0.06274674
0001d0 bc 4d c0 bd ae dc 88 bd da 4c 17 be 57 82 f7 bd
       -0.09389827 -0.06682716 -0.1477541 -0.12085407
0001e0 16 84 36 3d 53 99 16 be c0 4d f0 bd a9 67 ee 3d
       0.04455956 -0.14706926 -0.1173358 0.11640865
0001f0 b9 c4 41 bd ff 30 e5 3a 8b 9c 92 bd f2 d6 dc bd
       -0.04730675 0.0017485915 -0.071587645 -0.10783185
000200 53 5a 92 bc 84 a1 14 bd 16 9b 70 bd 14 e0 21 3e
       -0.017865336 -0.036286846 -0.05874165 0.15808135
000210 37 e9 d0 bd 5c 97 2a 3e 50 68 14 be 49 11 6f bd
       -0.10200732 0.16659302 -0.14492917 -0.058366094
000220 ed e3 38 bd 86 9a 54 3e af de 22 3e 13 87 fc bd
       -0.045139242 0.20762071 0.1590526 -0.12330451
000230 06 b9 62 3e 38 37 1a be 0d a5 55 bd ca ec 97 bd
       0.22140893 -0.15060127 -0.052159358 -0.07418211
000240 1f 9f a2 3b ba e4 06 3e 82 fd fd 3d c0 d0 9f bd
       0.0049628164 0.1317319 0.124018684 -0.07803488
000250 45 6a d1 bc ce 35 ba 3d 11 fc 96 3e d5 9b 94 bd
       -0.025563369 0.09092294 0.29489186 -0.07256285
000260 55 19 ab 3d 33 4d 80 3d 69 bc 44 3b 3c 7b 5d bd
       0.08354441 0.062647246 0.0030019528 -0.054072604
000270 b3 59 99 39 c6 af ed 3c cf e4 86 3d 9d 5e 86 3d
       0.00029249265 0.02901448 0.065866105 0.06561015
000280 ce 48 a2 bd 61 b4 69 3d 9a d6 e5 bd bc 41 f0 bd
       -0.07924043 0.05705679 -0.112225726 -0.11731288
000290 0d d3 67 bb 0b 39 bd bc e6 97 f3 bd ec 66 39 bb
       -0.0035373599 -0.02309849 -0.11894207 -0.0028290106
0002a0 2a 56 31 bb 7c 5b 16 be 31 58 42 bb ac cc d0 3c
       -0.0027059414 -0.14683336 -0.0029654617 0.02548822
0002b0 10 17 af 3d b6 7e 90 bd 09 44 e5 bc d2 93 5a 3d
       0.08549321 -0.07055418 -0.027986543 0.05336363
0002c0 ff 5d 09 3e b3 29 03 be b8 66 cc 3c a7 3f c9 3d
       0.13414763 -0.12808876 0.024951324 0.09826594
0002d0 74 f2 fa bd 79 29 be bc 14 fb 2f 3d 23 f1 65 3d
       -0.122532755 -0.023213135 0.042964056 0.05613817
0002e0 4b 98 50 3e 0a f9 64 3e d6 3b 00 bd 26 ef 27 bd
       0.20370595 0.22360626 -0.031307064 -0.040999554
0002f0 df 5a 9c bd a2 09 f8 bd 30 f2 e8 bc b0 6e 91 3d
       -0.0763452 -0.12111212 -0.028435796 0.0710119
000300 64 72 4d 3c 5e c8 3a bd 8a 5d d9 3d 10 74 b3 3d
       0.01253948 -0.04560124 0.10613544 0.087623715
000310 51 4c 9b 3d 22 b8 81 3b 8b bb 62 bc ee 64 32 3d
       0.075829156 0.003958718 -0.013838659 0.043553285
000320 f9 d0 91 3d 9a b0 78 bd a4 0e 5b bd 64 5d 2a bd
       0.071199365 -0.060715295 -0.05348076 -0.04159297
000330 1b 54 51 3e 8b 2e 8b 3d c7 1f 90 ba 2d 70 f7 3d
       0.2044224 0.06795987 -0.0010995799 0.12081943
000340 5e d9 ad 3d e3 59 41 3d 2b ec 3b bd 95 69 c3 bc
       0.08488725 0.047204863 -0.045879524 -0.023854056
000350 4c fb b5 bd d2 fd 23 bd e1 a2 63 be 55 49 7f 3d
       -0.08885822 -0.040036984 -0.22230102 0.062325794
000360 5d 45 42 bd 5e 6f a9 3c 04 da e0 3c c8 2f c4 3e
       -0.04742943 0.020682987 0.027447708 0.38317704
000370 53 dd 3b bb 8e 11 d1 3d 23 b9 ea bd fb ce 97 3d
       -0.0028665855 0.102084264 -0.11461093 0.07412525
000380 88 1b 1d 3d d2 9d 90 3d 4b 14 44 bd 9d 03 b1 3a
       0.038356334 0.07061352 -0.047870915 0.0013505105
000390 a8 10 53 3d e4 88 58 3d b8 5c d1 bb c1 5f ab bc
       0.051529557 0.052864924 -0.0063892268 -0.020919682
0003a0 f5 d8 1f 3e 39 12 84 bd df f1 a5 3d db 02 3c bd
       0.15610106 -0.06448788 0.08102774 -0.04590116
0003b0 37 b6 0f 3e e6 b9 96 bd 4d cf a9 bd e2 0a e8 bd
       0.14034353 -0.07359676 -0.082914926 -0.11330201
0003c0 36 a8 a8 3d fc 4e b2 3d be 5a 34 bd 52 7f da bd
       0.08235209 0.08706471 -0.04403185 -0.10668816
0003d0 c9 7c 62 bd dc 99 92 3d ef 52 f6 bd d9 ff 8a bd
       -0.055294786 0.071582526 -0.12027537 -0.0678708
0003e0 c2 6c 1a 3e 05 2b ea bd e7 f6 39 bd 26 dd 29 3e
       0.1508055 -0.114339866 -0.04540148 0.16588268
0003f0 c7 8f 90 bd e7 df ad 3d 37 14 e9 3d 39 95 6f 3d
       -0.07058673 0.084899716 0.11380809 0.05849192

lstm.bias_hh_l0 f4 [512]
000000 30 75 7a bd 59 43 95 bd d0 56 25 be 62 72 29 bd
       -0.061146915 -0.07288236 -0.16146398 -0.04136885
000010 9d 1c ae bd a4 ce 2a bd ac db 1f be 4b db 21 be
       -0.08501551 -0.041700974 -0.15611142 -0.1580631
000020 86 bf d3 bd 4a 92 94 bd 6c 76 7a bd c1 09 8c bd
       -0.103392646 -0.07254465 -0.061148092 -0.06837798
000030 40 40 fc 3c ab 07 a6 bd e2 fa 0a 3d 13 f5 09 be
       0.030792356 -0.08106931 0.033930667 -0.13472395
000040 8f 74 cc bd 5f cf bd bb 5b 16 0a 3c d6 01 d0 3c
       -0.09983169 -0.005792543 0.0084281815 0.0253915
000050 9b 39 54 bd 4f 9e b1 bd a2 d6 b1 3d bd 2d d6 bc
       -0.05181275 -0.08672773 0.08683516 -0.026144857
000060 ea 32 f2 3d 78 ae 6e bd 1b de 50 3d 0a 3c 2a be
       0.11826117 -0.058271855 0.050993066 -0.16624466
000070 60 aa 9e bd 2d 4c 12 bd 58 07 d5 bd b5 35 36 3d
       -0.0774734 -0.035717178 -0.10401791 0.044484813
000080 a5 82 d6 bd 84 99 2c bd 83 5a 9e bc c9 a3 76 be
       -0.10474137 -0.04213859 -0.019330269 -0.24085917
000090 6d 60 27 be 6f 76 1b bd 9e 54 95 bd b1 6c ba bd
       -0.16345377 -0.037954744 -0.0729153 -0.091027625
0000a0 71 76 18 bd 20 23 dd 3c 72 79 9d 3c 13 2a c8 bd
       -0.03722233 0.026994288 0.019222949 -0.0977365
0000b0 2a 4c a6 3d bc c2 98 3d e4 b1 b6 3d d3 14 f5 bd
       0.08119996 0.07459018 0.08920649 -0.119668625
0000c0 42 e8 64 3d b0 04 21 3d 6f 2f be bc 3d c8 a9 bd
       0.05588556 0.03931111 -0.023215977 -0.082901455
0000d0 c5 4c 4f be 96 d9 9b bd 7f 8a 71 3c 62 f8 88 bc
       -0.20244129 -0.076098606 0.014742493 -0.01672
0000e0 85 9d 88 be 94 6d 90 3d 2b 8e e4 bc e7 6d 3c 3d
       -0.26682678 0.0705215 -0.027899822 0.04600325
0000f0 1d bf ea bd ff 74 36 be fd 5c f4 bc 2c 76 6f 3e
       -0.11462233 -0.17818068 -0.029829497 0.23384923
000100 92 25 e8 bd 71 d1 60 be b2 95 4d 3d 54 f4 c7 bd
       -0.11335291 -0.21954896 0.05019159 -0.09763399
000110 0a 20 0c be 18 a8 1b bc fc cb ce bd 39 11 51 bb
       -0.13684097 -0.009500526 -0.10097501 -0.0031901135
000120 bc 21 a3 bb 82 1a fb bd bf 7f 43 be 3d 53 97 3d
       -0.0049783867 -0.12260915 -0.190917 0.07388923
000130 7a 82 98 3d 7e 41 41 3c bd d3 98 bc a0 08 9e bd
       0.074467614 0.0117954 -0.018655652 -0.07716489
000140 b1 b7 31 3c 7e c5 1c 3d 96 a1 1f bd aa 15 35 bd
       0.010847018 0.03827428 -0.03897246 -0.044210114
000150 94 d4 f1 bd c2 a1 03 bd 3f 40 cc bd 1d e2 e5 bd
       -0.11808124 -0.032136686 -0.099731915 -0.11224768
000160 01 5d 2e be 3f df 1a 3d 17 18 17 be 2e 16 f8 3d
       -0.17027666 0.03781056 -0.14755283 0.121136054
000170 b1 3a 96 bd 4b 6f ad bd c2 2c 8c bc 28 50 be bd
       -0.07335413 -0.08468493 -0.017111186 -0.09292632
000180 27 86 a9 3d dd 4f cf 3c 0f fb 03 be 2c 22 45 be
       0.08277541 0.025306636 -0.1288874 -0.19251317
000190 21 40 74 bd 9a 48 80 3a b8 46 52 3d 01 19 28 bc
       -0.05963147 0.0009787262 0.051336974 -0.010259868
0001a0 b7 76 b2 bd 37 39 07 be b6 8a fd bc 97 ac 98 bd
       -0.08714049 -0.1320542 -0.030949932 -0.07454794
0001b0 33 fd ac 3d e3 0b da 3c eb 33 c9 bd 32 e5 71 bd
       0.084467314 0.026616996 -0.09824356 -0.05905647
0001c0 dd e4 c4 3c b0 e3 3b 3d 52 3c 80 bc be 8b 2f be
       0.024034912 0.045871437 -0.015653763 -0.17143151
0001d0 a0 ce 34 be 8a 03 4b bd 0a d3 96 bd 3d 1e a6 bd
       -0.17656946 -0.049563922 -0.07364471 -0.08111236
0001e0 77 5f 44 bc e8 ec 22 3a 3a d2 03 3d 2f aa 12 3d
       -0.011985651 0.00062151114 0.03218291 0.03580683
0001f0 a6 5b 18 3b 72 9a e7 bc 3e 8d b5 bd 06 5c 17 be
       0.0023247986 -0.028271887 -0.088648304 -0.14781198
000200 f5 6f 8e 3d 93 49 0a 3d 6b 64 64 bd 62 5b a4 3d
       0.06954948 0.033761572 -0.05575983 0.080252424
000210 00 b8 23 bc 9f 33 af 3d 78 13 7e bb 98 b8 8a bd
       -0.0099925995 0.08554768 -0.0038768928 -0.0677349
000220 d9 ab c4 3c f8 84 5d 3e fd 4c 1c 3e 3f ee 0e 3d
       0.024007725 0.21632755 0.15263744 0.034895178
000230 6c f3 78 3e e8 ae 08 be ff 0e c2 3c 95 61 02 3d
       0.24311608 -0.13347971 0.023688791 0.031831343
000240 18 67 0d 3e df 32 c4 3d ab db 4d 3e 2f d1 c8 b8
       0.13808858 0.095800154 0.20103328 -9.575707e-05
000250 62 b2 32 3d 11 91 0e bd 23 fe 8e 3e 07 dd 1f 3d
       0.04362715 -0.034806315 0.27928266 0.039029147
000260 13 a5 1e 3e a4 06 7d 3d b3 14 a9 ba cb e9 b2 bc
       0.15492658 0.06177391 -0.0012899846 -0.021839997
000270 92 c1 24 3d c0 72 d5 ba c4 67 21 bc 24 14 71 3d
       0.040223666 -0.0016284809 -0.0098514 0.0588571
000280 45 b6 09 be 41 57 93 bc e5 29 7c 3c 1f 45 08 be
       -0.13448437 -0.017985942 0.015390848 -0.13307618
000290 9a 94 01 36 f4 f8 bb bd 08 d5 85 bc c0 4c 01 be
       1.9308995e-06 -0.091783434 -0.016336933 -0.12626934
0002a0 6c c8 0d 3d dd 03 92 bc 50 44 a8 3d 7c d6 b3 3d
       0.034614965 -0.017824108 0.082161546 0.08781144
0002b0 6f 85 81 3d 61 1c 55 3d 9c 03 30 bd cb 8d 85 bc
       0.063242786 0.052029017 -0.042972192 -0.016302964
0002c0 95 5d 16 3e 0d 57 b6 bd 03 b7 c6 bd da 63 36 3e
       0.14684136 -0.08903322 -0.097028755 0.17811528
0002d0 da 85 f2 bd 61 b5 3d 3d 0d 57 eb bd cf ee 8f bd
       -0.118419364 0.046315555 -0.11491213 -0.07027971
0002e0 37 8f 39 3e 42 2a d7 3d 7c 39 f3 38 f1 e1 e1 bc
       0.18121038 0.10506107 0.0001159785 -0.027573558
0002f0 59 9e 1e 3b 22 18 39 bc 33 95 92 bd 08 d4 cf 3d
       0.002420327 -0.011297258 -0.07157364 0.101478636
000300 84 d1 4d 3c ff b4 f4 bc f8 d5 6d 3d 5f 49 1b bd
       0.012562159 -0.029871462 0.058065385 -0.03791177
000310 cf c7 14 bc a8 92 01 3d 2b 36 3a 3d ed 85 f5 bc
       -0.009080841 0.031634003 0.045461815 -0.029971087
000320 d4 35 a8 3b cb db 02 be ac 4f f4 bd d7 de 26 bd
       0.00513337 -0.12779157 -0.11929259 -0.04073986
000330 e8 74 51 3e c2 31 c2 3d 96 8f 64 3c 5c e9 95 3d
       0.20454752 0.09482147 0.013950249 0.073199004
000340 7c a4 07 3d 3f 27 a1 3d 21 dd e9 bd 53 2d 4c bd
       0.03311585 0.07868814 -0.1141913 -0.049847912
000350 5e 1e 2b bc c0 d4 68 bc fe 81 55 be 9a d2 88 3d
       -0.010444252 -0.01421088 -0.2085037 0.06680794
000360 b6 9c f1 bd 27 43 8e 3d c4 c1 9b 3c 94 1c 8a 3e
       -0.11797468 0.06946402 0.019013293 0.26974928
000370 4b d9 f5 bc ef 01 dd 3d 29 a7 a4 3c 0e bd ec 3d
       -0.03001084 0.107913844 0.02009924 0.11559497
000380 0a 2f b4 3d e6 31 ab 3d 13 18 22 be fe 14 e7 bd
       0.087980345 0.08359127 -0.15829496 -0.11283301
000390 d2 f8 81 bd a1 3c 96 bd 87 93 fa 3d bd 9b 5c bd
       -0.06346287 -0.07335783 0.1223517 -0.05385946
0003a0 83 80 3c 3d 9e 3b c5 3c 7b ef 1f 3e 1b a3 d7 3c
       0.046020996 0.02407628 0.15618698 0.026322892
0003b0 f1 ea 97 3d 33 47 95 bd b6 9a 01 3d 5d 19 a6 bc
       0.074178584 -0.07288971 0.031641684 -0.020275766
0003c0 64 e8 d1 3d 42 55 1e 3d 42 23 95 3c 13 c4 a0 bd
       0.10249403 0.038655527 0.018205289 -0.07849898
0003d0 54 05 92 bd 64 24 08 3d dc 91 2c bd a8 de f1 bc
       -0.071299225 0.03323783 -0.04213129 -0.029525116
0003e0 cd 57 68 3d fd 1e 42 3b 63 66 bb bc 26 80 34 3e
       0.05672436 0.0029620521 -0.02287597 0.1762701
0003f0 49 8a c9 3c 38 95 91 3c 31 27 22 3e 29 96 32 bd
       0.024602072 0.017771348 0.15835263 -0.043600235

fc.weight f4 [4, 128]
000000 8f 38 89 3e f0 ba 93 3d 25 83 fd bc ae 27 88 be
       0.26800963 0.0721339 -0.030946324 -0.26592773
000010 d8 5f 09 bd a8 d1 db 3c a8 6f 27 3d 8b de 9c bc
       -0.03353867 0.02683337 0.040877968 -0.019149086
000020 19 fa c4 bd 49 99 d7 bc 78 4d 41 be 7b b0 c6 bd
       -0.09618015 -0.02631821 -0.18877208 -0.0970163
000030 e9 94 bc bd f1 29 81 3d c4 f3 b3 3c f8 2c 22 be
       -0.0920809 0.06306828 0.021966822 -0.15837467
000040 8c 0e 92 3e ab be 17 3d 6c fc cd 3c 9e 42 aa bc
       0.28526723 0.03704707 0.025144778 -0.020783719
000050 2c 61 c1 3d f4 c7 3c 3d 5d cb 96 bd 7c ad 48 be
       0.09442362 0.046089128 -0.07363007 -0.19597429
000060 68 bc 46 3d c6 f4 66 bc 99 30 9c bd 6e 78 8c 3d
       0.048519522 -0.0140964445 -0.07626457 0.06858908
000070 ca 17 6e be b3 68 34 bd c3 14 88 bd 2d 18 a7 3d
       -0.23251262 -0.04404516 -0.06644585 0.08158908
000080 9c b3 91 bd 53 92 53 be 4f 19 58 bd ab 04 98 3c
       -0.07114336 -0.20661287 -0.05275851 0.018556913
000090 8a 07 4e 3d 86 2e aa 3d e0 5e 77 3b 2a 48 52 bd
       0.05030016 0.08309655 0.003774576 -0.051338352
0000a0 db 9e c2 bc f9 3c 10 be 30 de 9c 3d 54 f4 34 ba
       -0.023757389 -0.14085759 0.076595664 -0.0006902863
0000b0 67 1d 84 bd dd 60 22 3d 38 06 8f 3c 73 ab 9b bd
       -0.064509206 0.039643157 0.01745902 -0.07601061
0000c0 6f 33 08 3d 34 d1 f1 3c ff 38 55 3e 8d 77 6e 3d
       0.033252176 0.029518701 0.20822524 0.05821948
0000d0 c4 a3 ed 3c 4d e3 66 be 71 14 29 bd 59 42 45 bd
       0.029008754 -0.22547646 -0.04127926 -0.048158977
0000e0 0c 61 12 3f 7a b4 17 be b3 7a d5 3d be 13 2f be
       0.5717933 -0.1481494 0.10423794 -0.17097375
0000f0 45 a4 50 3d 7a 8c 9a 3c d8 9c 53 3d 84 99 c9 bd
       0.05093791 0.018865813 0.05166325 -0.09843734
000100 f3 9f 69 bd c3 26 68 3c 77 8a 01 3e 9d 2e 96 3c
       -0.057037305 0.014169398 0.12650476 0.018332774
000110 23 63 09 3d ba 9f f4 bc 76 e5 cd 3a cf 36 b5 3d
       0.03354181 -0.02986132 0.0015708643 0.088483445
000120 8e fe bd bd 81 84 86 bb fd 24 ae bc d7 96 26 bd
       -0.09277068 -0.004105151 -0.021257872 -0.040671196
000130 b3 5b 64 3d 49 f5 a8 bd 10 0e 92 3d d3 cd ff bd
       0.055751514 -0.082499094 0.071315885 -0.1249043
000140 51 2d 99 bb b6 e8 29 bc a2 33 63 be 2e 86 08 bd
       -0.0046745916 -0.010370424 -0.22187665 -0.03333109
000150 86 53 41 bd 90 2d eb 3c d6 55 a2 3d 30 44 07 be
       -0.047198795 0.02870825 0.07926528 -0.13209605
000160 9b 02 df 3d c5 8e a4 bd ba 86 46 bd cf 13 05 3c
       0.10889169 -0.080350436 -0.04846833 0.0081223985
000170 f3 45 11 3d 74 a7 0f bd 43 24 c8 3c 58 c3 42 3d
       0.0354671 -0.035071805 0.024431353 0.047549576
000180 1e 55 98 3e 97 c7 6b 3e da 01 6c 3d 8f 27 12 bd
       0.2975244 0.23025356 0.057618953 -0.035682257
000190 a3 c4 7a ba ba 98 5c 3d bb 20 fe bd 3a 66 a6 3e
       -0.00095660443 0.05385659 -0.124085866 0.32499868
0001a0 9f 30 cd 3d f1 e6 26 3d da 5d b8 bc df 74 ab 3c
       0.10019039 0.040747587 -0.02250569 0.020929752
0001b0 02 13 73 3d 4c c1 32 bd 7d 7c 1d bd e5 13 48 bd
       0.0593443 -0.043641374 -0.0384488 -0.048847098
0001c0 85 3d 6f 3d 7d 99 a6 bc 6f 0e ce 3d eb 72 1a bd
       0.05840828 -0.02033686 0.10061347 -0.03770725
0001d0 79 2d 12 bd ce bf 94 bd ea 94 95 3b 0e dd 2c be
       -0.035687897 -0.07263146 0.004564871 -0.168812
0001e0 bf 7f af 3d ff 17 a1 bd ad 8b ae bd 2b 78 3a 3d
       0.085692875 -0.07865905 -0.08522735 0.045524757
0001f0 93 bf 89 be 22 a7 a6 bd 1d d8 1e 3c e0 24 0b 3c
       -0.26903972 -0.08137347 0.00969508 0.008492678
000200 de a0 68 bd 6b 13 78 3e 0d e5 7a bd 94 58 68 3e
       -0.05679404 0.24226157 -0.061253596 0.2269004
000210 85 29 af 3d f1 df b1 3b b2 b8 2e bc 4a 54 01 3e
       0.08552841 0.005428307 -0.010664152 0.1262981
000220 a4 ac 2b 3e 0a 67 a2 3d a3 41 d5 3e 41 ed ee bc
       0.16765076 0.079298094 0.4165164 -0.029165866
000230 17 c1 1d bd 0d 7a 66 3d e9 fd d0 3c d8 90 2c 3e
       -0.038514223 0.05626874 0.025511699 0.16852129
000240 74 19 8d 3e eb 5e a3 3d b9 24 d1 bd f0 32 e8 bc
       0.27558482 0.079770885 -0.102120824 -0.028344601
000250 cc ad 80 3d 80 2f 2a 3e 9c 1c 18 3e 43 b5 cd bd
       0.06283149 0.16619682 0.14854664 -0.100443386
000260 07 89 22 3d 3a 1e 27 bd 33 85 a9 3e 0e 23 3c 3d
       0.03968146 -0.04080031 0.33109435 0.04593187
000270 96 b8 fb 3c 46 50 d5 bd 10 d6 2c be 13 c1 d4 3d
       0.030727666 -0.104157016 -0.16878533 0.103883885
000280 8b 33 ee 3c b5 91 c2 3e 9c 62 d5 be 05 6c eb bd
       0.029077312 0.3800179 -0.41676795 -0.114952125
000290 d3 28 0e 3e 53 f6 bc 3c 1b 97 1c be c6 f9 66 3d
       0.1388276 0.023066675 -0.15292017 0.056390546
0002a0 1c 4c 9d 3d d2 52 15 3e b4 3b b8 3d 83 23 3c bd
       0.07680532 0.14582375 0.089957625 -0.045932304
0002b0 77 40 f1 bd fb 74 31 3e 95 62 b9 3e f7 04 4c bd
       -0.11779874 0.17329781 0.36208025 -0.049809422
0002c0 02 c8 00 be d9 80 37 3d ef a9 49 be a0 40 ba be
       -0.12576297 0.044800613 -0.19693731 -0.3637743
0002d0 96 57 17 3d c4 2f a5 be 03 f1 84 3c bb a8 55 3c
       0.036948763 -0.32263005 0.016228205 0.013040717
0002e0 89 78 a5 3e 19 ba f1 bd 44 09 97 be 6b e6 65 be
       0.32318524 -0.118030734 -0.29499257 -0.22451179
0002f0 92 ff 47 bd 3f 18 9b bc fb 75 66 3e 4e 2d 90 3e
       -0.048827715 -0.01893246 0.22505943 0.28159565
000300 68 ff 66 3d 4f 52 68 3b 7b 83 31 be f9 7b 33 be
       0.056395918 0.003544945 -0.17335312 -0.1752776
000310 bb 99 ad 3d 6a 13 55 3d 8e 7d 1a 3e 77 fe ac 3d
       0.084765874 0.052020468 0.15086958 0.08446973
000320 99 08 17 bc de fe d3 3c 04 cd c9 3d e6 de 64 3d
       -0.009218358 0.025878366 0.09853557 0.055876635
000330 6d 9b ee bd e1 15 f4 39 f4 cb 89 bd 31 d7 f3 3d
       -0.11650739 0.00046555608 -0.06728354 0.11906279
000340 42 1b af bd b1 5a 16 3e 58 23 54 3e 77 e5 95 bd
       -0.08550121 0.14683034 0.20716608 -0.073191576
000350 1a 88 80 3d 9f f7 04 3e 72 e9 9d 3d b1 eb 3a 3e
       0.06275959 0.12985085 0.07710542 0.18253972
000360 3e fa 69 be f2 ff fd bc 76 ee 39 bd 25 e5 52 be
       -0.22849366 -0.031005833 -0.04539343 -0.20595224
000370 72 9f da bd a6 47 e9 bd 68 b0 96 3e a2 81 18 3e
       -0.10674943 -0.11390619 0.29431462 0.14893201
000380 84 78 41 be 9c 8b 98 3e d9 bf b2 3d 65 11 08 bd
       -0.1889363 0.29794014 0.08727998 -0.033219714
000390 75 da 34 bd 87 7a 4f bd ba 6e 23 bb 89 31 86 be
       -0.04415365 -0.05065396 -0.0024937824 -0.26209667
0003a0 4b 48 9a 3d 8f 37 23 bd 5d c2 ce bd 5b b7 29 3c
       0.0753332 -0.039847907 -0.100956656 0.010358657
0003b0 ac f3 bc bd c8 4a 82 bd 35 62 e3 bc 2b 19 ed bd
       -0.09226164 -0.0636192 -0.02775679 -0.11577066
0003c0 90 c0 c7 bb e6 a7 12 be 5e e4 52 bc a6 ce 9d 3d
       -0.0060959533 -0.1432186 -0.01287183 0.07705431
0003d0 70 69 b7 3c a0 42 8c 3d f6 79 14 3d bd ca 67 be
       0.022389144 0.06848645 0.036249124 -0.22635932
0003e0 e3 7c b5 3c d1 88 0d 3e 9f 89 05 3a 88 1a a7 bd
       0.022154277 0.13821723 0.00050940545 -0.08159357
0003f0 39 76 f0 3d cf c4 d3 bc 60 36 d5 3d 2a bb 75 bc
       0.11741299 -0.025850682 0.10410762 -0.014998237

fc.bias f4 [4]
000000 d1 6b 05 bd b3 80 67 3c 44 3f 74 3c 8b 6f 06 3d
       -0.032573525 0.014129805 0.014907662 0.03282122
